<?xml version="1.0"?>
<net name="Model1801" version="11">
	<layers>
		<layer id="0" name="x" type="Parameter" version="opset1">
			<data shape="1,3,480,480" element_type="f32" />
			<output>
				<port id="0" precision="FP32" names="x">
					<dim>1</dim>
					<dim>3</dim>
					<dim>480</dim>
					<dim>480</dim>
				</port>
			</output>
		</layer>
		<layer id="1" name="__module.model.23/aten::unsqueeze/Unsqueeze" type="Const" version="opset1">
			<data element_type="f32" shape="1, 2, 4725" offset="0" size="37800" />
			<output>
				<port id="0" precision="FP32" names="1539,anchor_points">
					<dim>1</dim>
					<dim>2</dim>
					<dim>4725</dim>
				</port>
			</output>
		</layer>
		<layer id="2" name="x/fq_output_0/input_low" type="Const" version="opset1">
			<data element_type="f32" shape="" offset="37800" size="4" />
			<output>
				<port id="0" precision="FP32" />
			</output>
		</layer>
		<layer id="3" name="x/fq_output_0/input_high" type="Const" version="opset1">
			<data element_type="f32" shape="" offset="37804" size="4" />
			<output>
				<port id="0" precision="FP32" />
			</output>
		</layer>
		<layer id="4" name="x/fq_output_0/output_low" type="Const" version="opset1">
			<data element_type="f32" shape="" offset="37800" size="4" />
			<output>
				<port id="0" precision="FP32" />
			</output>
		</layer>
		<layer id="5" name="x/fq_output_0/output_high" type="Const" version="opset1">
			<data element_type="f32" shape="" offset="37804" size="4" />
			<output>
				<port id="0" precision="FP32" />
			</output>
		</layer>
		<layer id="6" name="x/fq_output_0" type="FakeQuantize" version="opset1">
			<data levels="256" auto_broadcast="numpy" />
			<input>
				<port id="0" precision="FP32">
					<dim>1</dim>
					<dim>3</dim>
					<dim>480</dim>
					<dim>480</dim>
				</port>
				<port id="1" precision="FP32" />
				<port id="2" precision="FP32" />
				<port id="3" precision="FP32" />
				<port id="4" precision="FP32" />
			</input>
			<output>
				<port id="5" precision="FP32">
					<dim>1</dim>
					<dim>3</dim>
					<dim>480</dim>
					<dim>480</dim>
				</port>
			</output>
		</layer>
		<layer id="7" name="Constant_2245372" type="Const" version="opset1">
			<data element_type="i8" shape="64, 3, 3, 3" offset="37808" size="1728" />
			<output>
				<port id="0" precision="I8">
					<dim>64</dim>
					<dim>3</dim>
					<dim>3</dim>
					<dim>3</dim>
				</port>
			</output>
		</layer>
		<layer id="8" name="Convert_2245373" type="Convert" version="opset1">
			<data destination_type="f32" />
			<input>
				<port id="0" precision="I8">
					<dim>64</dim>
					<dim>3</dim>
					<dim>3</dim>
					<dim>3</dim>
				</port>
			</input>
			<output>
				<port id="1" precision="FP32">
					<dim>64</dim>
					<dim>3</dim>
					<dim>3</dim>
					<dim>3</dim>
				</port>
			</output>
		</layer>
		<layer id="9" name="Constant_2245374" type="Const" version="opset1">
			<data element_type="f32" shape="64, 1, 1, 1" offset="39536" size="256" />
			<output>
				<port id="0" precision="FP32">
					<dim>64</dim>
					<dim>1</dim>
					<dim>1</dim>
					<dim>1</dim>
				</port>
			</output>
		</layer>
		<layer id="10" name="__module.model.0.conv/aten::_convolution/Convolution/fq_weights_1" type="Multiply" version="opset1">
			<data auto_broadcast="numpy" />
			<input>
				<port id="0" precision="FP32">
					<dim>64</dim>
					<dim>3</dim>
					<dim>3</dim>
					<dim>3</dim>
				</port>
				<port id="1" precision="FP32">
					<dim>64</dim>
					<dim>1</dim>
					<dim>1</dim>
					<dim>1</dim>
				</port>
			</input>
			<output>
				<port id="2" precision="FP32">
					<dim>64</dim>
					<dim>3</dim>
					<dim>3</dim>
					<dim>3</dim>
				</port>
			</output>
		</layer>
		<layer id="11" name="__module.model.0.conv/aten::_convolution/Convolution" type="Convolution" version="opset1">
			<data strides="2, 2" dilations="1, 1" pads_begin="1, 1" pads_end="1, 1" auto_pad="explicit" />
			<input>
				<port id="0" precision="FP32">
					<dim>1</dim>
					<dim>3</dim>
					<dim>480</dim>
					<dim>480</dim>
				</port>
				<port id="1" precision="FP32">
					<dim>64</dim>
					<dim>3</dim>
					<dim>3</dim>
					<dim>3</dim>
				</port>
			</input>
			<output>
				<port id="2" precision="FP32">
					<dim>1</dim>
					<dim>64</dim>
					<dim>240</dim>
					<dim>240</dim>
				</port>
			</output>
		</layer>
		<layer id="12" name="__module.model.0.conv/aten::_convolution/Reshape" type="Const" version="opset1">
			<data element_type="f32" shape="1, 64, 1, 1" offset="39792" size="256" />
			<output>
				<port id="0" precision="FP32">
					<dim>1</dim>
					<dim>64</dim>
					<dim>1</dim>
					<dim>1</dim>
				</port>
			</output>
		</layer>
		<layer id="13" name="__module.model.0.conv/aten::_convolution/Add" type="Add" version="opset1">
			<data auto_broadcast="numpy" />
			<input>
				<port id="0" precision="FP32">
					<dim>1</dim>
					<dim>64</dim>
					<dim>240</dim>
					<dim>240</dim>
				</port>
				<port id="1" precision="FP32">
					<dim>1</dim>
					<dim>64</dim>
					<dim>1</dim>
					<dim>1</dim>
				</port>
			</input>
			<output>
				<port id="2" precision="FP32" names="93_1">
					<dim>1</dim>
					<dim>64</dim>
					<dim>240</dim>
					<dim>240</dim>
				</port>
			</output>
		</layer>
		<layer id="14" name="__module.model.23.cv3.2.1.1.act/aten::silu_/Swish" type="Swish" version="opset4">
			<input>
				<port id="0" precision="FP32">
					<dim>1</dim>
					<dim>64</dim>
					<dim>240</dim>
					<dim>240</dim>
				</port>
			</input>
			<output>
				<port id="1" precision="FP32" names="93,input.1">
					<dim>1</dim>
					<dim>64</dim>
					<dim>240</dim>
					<dim>240</dim>
				</port>
			</output>
		</layer>
		<layer id="15" name="__module.model.23.cv3.2.1.1.act/aten::silu_/Swish/fq_output_0/input_low" type="Const" version="opset1">
			<data element_type="f32" shape="" offset="40048" size="4" />
			<output>
				<port id="0" precision="FP32" />
			</output>
		</layer>
		<layer id="16" name="__module.model.23.cv3.2.1.1.act/aten::silu_/Swish/fq_output_0/input_high" type="Const" version="opset1">
			<data element_type="f32" shape="" offset="40052" size="4" />
			<output>
				<port id="0" precision="FP32" />
			</output>
		</layer>
		<layer id="17" name="__module.model.23.cv3.2.1.1.act/aten::silu_/Swish/fq_output_0/output_low" type="Const" version="opset1">
			<data element_type="f32" shape="" offset="40048" size="4" />
			<output>
				<port id="0" precision="FP32" />
			</output>
		</layer>
		<layer id="18" name="__module.model.23.cv3.2.1.1.act/aten::silu_/Swish/fq_output_0/output_high" type="Const" version="opset1">
			<data element_type="f32" shape="" offset="40052" size="4" />
			<output>
				<port id="0" precision="FP32" />
			</output>
		</layer>
		<layer id="19" name="__module.model.23.cv3.2.1.1.act/aten::silu_/Swish/fq_output_0" type="FakeQuantize" version="opset1">
			<data levels="256" auto_broadcast="numpy" />
			<input>
				<port id="0" precision="FP32">
					<dim>1</dim>
					<dim>64</dim>
					<dim>240</dim>
					<dim>240</dim>
				</port>
				<port id="1" precision="FP32" />
				<port id="2" precision="FP32" />
				<port id="3" precision="FP32" />
				<port id="4" precision="FP32" />
			</input>
			<output>
				<port id="5" precision="FP32">
					<dim>1</dim>
					<dim>64</dim>
					<dim>240</dim>
					<dim>240</dim>
				</port>
			</output>
		</layer>
		<layer id="20" name="Constant_2245376" type="Const" version="opset1">
			<data element_type="i8" shape="128, 64, 3, 3" offset="40056" size="73728" />
			<output>
				<port id="0" precision="I8">
					<dim>128</dim>
					<dim>64</dim>
					<dim>3</dim>
					<dim>3</dim>
				</port>
			</output>
		</layer>
		<layer id="21" name="Convert_2245377" type="Convert" version="opset1">
			<data destination_type="f32" />
			<input>
				<port id="0" precision="I8">
					<dim>128</dim>
					<dim>64</dim>
					<dim>3</dim>
					<dim>3</dim>
				</port>
			</input>
			<output>
				<port id="1" precision="FP32">
					<dim>128</dim>
					<dim>64</dim>
					<dim>3</dim>
					<dim>3</dim>
				</port>
			</output>
		</layer>
		<layer id="22" name="Constant_2245378" type="Const" version="opset1">
			<data element_type="f32" shape="128, 1, 1, 1" offset="113784" size="512" />
			<output>
				<port id="0" precision="FP32">
					<dim>128</dim>
					<dim>1</dim>
					<dim>1</dim>
					<dim>1</dim>
				</port>
			</output>
		</layer>
		<layer id="23" name="__module.model.1.conv/aten::_convolution/Convolution/fq_weights_1" type="Multiply" version="opset1">
			<data auto_broadcast="numpy" />
			<input>
				<port id="0" precision="FP32">
					<dim>128</dim>
					<dim>64</dim>
					<dim>3</dim>
					<dim>3</dim>
				</port>
				<port id="1" precision="FP32">
					<dim>128</dim>
					<dim>1</dim>
					<dim>1</dim>
					<dim>1</dim>
				</port>
			</input>
			<output>
				<port id="2" precision="FP32">
					<dim>128</dim>
					<dim>64</dim>
					<dim>3</dim>
					<dim>3</dim>
				</port>
			</output>
		</layer>
		<layer id="24" name="__module.model.1.conv/aten::_convolution/Convolution" type="Convolution" version="opset1">
			<data strides="2, 2" dilations="1, 1" pads_begin="1, 1" pads_end="1, 1" auto_pad="explicit" />
			<input>
				<port id="0" precision="FP32">
					<dim>1</dim>
					<dim>64</dim>
					<dim>240</dim>
					<dim>240</dim>
				</port>
				<port id="1" precision="FP32">
					<dim>128</dim>
					<dim>64</dim>
					<dim>3</dim>
					<dim>3</dim>
				</port>
			</input>
			<output>
				<port id="2" precision="FP32">
					<dim>1</dim>
					<dim>128</dim>
					<dim>120</dim>
					<dim>120</dim>
				</port>
			</output>
		</layer>
		<layer id="25" name="__module.model.1.conv/aten::_convolution/Reshape" type="Const" version="opset1">
			<data element_type="f32" shape="1, 128, 1, 1" offset="114296" size="512" />
			<output>
				<port id="0" precision="FP32">
					<dim>1</dim>
					<dim>128</dim>
					<dim>1</dim>
					<dim>1</dim>
				</port>
			</output>
		</layer>
		<layer id="26" name="__module.model.1.conv/aten::_convolution/Add" type="Add" version="opset1">
			<data auto_broadcast="numpy" />
			<input>
				<port id="0" precision="FP32">
					<dim>1</dim>
					<dim>128</dim>
					<dim>120</dim>
					<dim>120</dim>
				</port>
				<port id="1" precision="FP32">
					<dim>1</dim>
					<dim>128</dim>
					<dim>1</dim>
					<dim>1</dim>
				</port>
			</input>
			<output>
				<port id="2" precision="FP32" names="107_1">
					<dim>1</dim>
					<dim>128</dim>
					<dim>120</dim>
					<dim>120</dim>
				</port>
			</output>
		</layer>
		<layer id="27" name="__module.model.23.cv3.2.1.1.act/aten::silu_/Swish_1" type="Swish" version="opset4">
			<input>
				<port id="0" precision="FP32">
					<dim>1</dim>
					<dim>128</dim>
					<dim>120</dim>
					<dim>120</dim>
				</port>
			</input>
			<output>
				<port id="1" precision="FP32" names="107,input.5">
					<dim>1</dim>
					<dim>128</dim>
					<dim>120</dim>
					<dim>120</dim>
				</port>
			</output>
		</layer>
		<layer id="28" name="__module.model.23.cv3.2.1.1.act/aten::silu_/Swish_1/fq_output_0/input_low" type="Const" version="opset1">
			<data element_type="f32" shape="" offset="114808" size="4" />
			<output>
				<port id="0" precision="FP32" />
			</output>
		</layer>
		<layer id="29" name="__module.model.23.cv3.2.1.1.act/aten::silu_/Swish_1/fq_output_0/input_high" type="Const" version="opset1">
			<data element_type="f32" shape="" offset="114812" size="4" />
			<output>
				<port id="0" precision="FP32" />
			</output>
		</layer>
		<layer id="30" name="__module.model.23.cv3.2.1.1.act/aten::silu_/Swish_1/fq_output_0/output_low" type="Const" version="opset1">
			<data element_type="f32" shape="" offset="114808" size="4" />
			<output>
				<port id="0" precision="FP32" />
			</output>
		</layer>
		<layer id="31" name="__module.model.23.cv3.2.1.1.act/aten::silu_/Swish_1/fq_output_0/output_high" type="Const" version="opset1">
			<data element_type="f32" shape="" offset="114812" size="4" />
			<output>
				<port id="0" precision="FP32" />
			</output>
		</layer>
		<layer id="32" name="__module.model.23.cv3.2.1.1.act/aten::silu_/Swish_1/fq_output_0" type="FakeQuantize" version="opset1">
			<data levels="256" auto_broadcast="numpy" />
			<input>
				<port id="0" precision="FP32">
					<dim>1</dim>
					<dim>128</dim>
					<dim>120</dim>
					<dim>120</dim>
				</port>
				<port id="1" precision="FP32" />
				<port id="2" precision="FP32" />
				<port id="3" precision="FP32" />
				<port id="4" precision="FP32" />
			</input>
			<output>
				<port id="5" precision="FP32">
					<dim>1</dim>
					<dim>128</dim>
					<dim>120</dim>
					<dim>120</dim>
				</port>
			</output>
		</layer>
		<layer id="33" name="Constant_2245380" type="Const" version="opset1">
			<data element_type="i8" shape="128, 128, 1, 1" offset="114816" size="16384" />
			<output>
				<port id="0" precision="I8">
					<dim>128</dim>
					<dim>128</dim>
					<dim>1</dim>
					<dim>1</dim>
				</port>
			</output>
		</layer>
		<layer id="34" name="Convert_2245381" type="Convert" version="opset1">
			<data destination_type="f32" />
			<input>
				<port id="0" precision="I8">
					<dim>128</dim>
					<dim>128</dim>
					<dim>1</dim>
					<dim>1</dim>
				</port>
			</input>
			<output>
				<port id="1" precision="FP32">
					<dim>128</dim>
					<dim>128</dim>
					<dim>1</dim>
					<dim>1</dim>
				</port>
			</output>
		</layer>
		<layer id="35" name="Constant_2245382" type="Const" version="opset1">
			<data element_type="f32" shape="128, 1, 1, 1" offset="131200" size="512" />
			<output>
				<port id="0" precision="FP32">
					<dim>128</dim>
					<dim>1</dim>
					<dim>1</dim>
					<dim>1</dim>
				</port>
			</output>
		</layer>
		<layer id="36" name="__module.model.2.cv1.conv/aten::_convolution/Convolution/fq_weights_1" type="Multiply" version="opset1">
			<data auto_broadcast="numpy" />
			<input>
				<port id="0" precision="FP32">
					<dim>128</dim>
					<dim>128</dim>
					<dim>1</dim>
					<dim>1</dim>
				</port>
				<port id="1" precision="FP32">
					<dim>128</dim>
					<dim>1</dim>
					<dim>1</dim>
					<dim>1</dim>
				</port>
			</input>
			<output>
				<port id="2" precision="FP32">
					<dim>128</dim>
					<dim>128</dim>
					<dim>1</dim>
					<dim>1</dim>
				</port>
			</output>
		</layer>
		<layer id="37" name="__module.model.2.cv1.conv/aten::_convolution/Convolution" type="Convolution" version="opset1">
			<data strides="1, 1" dilations="1, 1" pads_begin="0, 0" pads_end="0, 0" auto_pad="explicit" />
			<input>
				<port id="0" precision="FP32">
					<dim>1</dim>
					<dim>128</dim>
					<dim>120</dim>
					<dim>120</dim>
				</port>
				<port id="1" precision="FP32">
					<dim>128</dim>
					<dim>128</dim>
					<dim>1</dim>
					<dim>1</dim>
				</port>
			</input>
			<output>
				<port id="2" precision="FP32">
					<dim>1</dim>
					<dim>128</dim>
					<dim>120</dim>
					<dim>120</dim>
				</port>
			</output>
		</layer>
		<layer id="38" name="__module.model.2.cv1.conv/aten::_convolution/Reshape" type="Const" version="opset1">
			<data element_type="f32" shape="1, 128, 1, 1" offset="131712" size="512" />
			<output>
				<port id="0" precision="FP32">
					<dim>1</dim>
					<dim>128</dim>
					<dim>1</dim>
					<dim>1</dim>
				</port>
			</output>
		</layer>
		<layer id="39" name="__module.model.2.cv1.conv/aten::_convolution/Add" type="Add" version="opset1">
			<data auto_broadcast="numpy" />
			<input>
				<port id="0" precision="FP32">
					<dim>1</dim>
					<dim>128</dim>
					<dim>120</dim>
					<dim>120</dim>
				</port>
				<port id="1" precision="FP32">
					<dim>1</dim>
					<dim>128</dim>
					<dim>1</dim>
					<dim>1</dim>
				</port>
			</input>
			<output>
				<port id="2" precision="FP32" names="125_1">
					<dim>1</dim>
					<dim>128</dim>
					<dim>120</dim>
					<dim>120</dim>
				</port>
			</output>
		</layer>
		<layer id="40" name="__module.model.23.cv3.2.1.1.act/aten::silu_/Swish_2" type="Swish" version="opset4">
			<input>
				<port id="0" precision="FP32">
					<dim>1</dim>
					<dim>128</dim>
					<dim>120</dim>
					<dim>120</dim>
				</port>
			</input>
			<output>
				<port id="1" precision="FP32" names="125,input.9">
					<dim>1</dim>
					<dim>128</dim>
					<dim>120</dim>
					<dim>120</dim>
				</port>
			</output>
		</layer>
		<layer id="41" name="__module.model.23.cv3.2.1.1.act/aten::silu_/Swish_2/fq_output_0/input_low" type="Const" version="opset1">
			<data element_type="f32" shape="" offset="132224" size="4" />
			<output>
				<port id="0" precision="FP32" />
			</output>
		</layer>
		<layer id="42" name="__module.model.23.cv3.2.1.1.act/aten::silu_/Swish_2/fq_output_0/input_high" type="Const" version="opset1">
			<data element_type="f32" shape="" offset="132228" size="4" />
			<output>
				<port id="0" precision="FP32" />
			</output>
		</layer>
		<layer id="43" name="__module.model.23.cv3.2.1.1.act/aten::silu_/Swish_2/fq_output_0/output_low" type="Const" version="opset1">
			<data element_type="f32" shape="" offset="132224" size="4" />
			<output>
				<port id="0" precision="FP32" />
			</output>
		</layer>
		<layer id="44" name="__module.model.23.cv3.2.1.1.act/aten::silu_/Swish_2/fq_output_0/output_high" type="Const" version="opset1">
			<data element_type="f32" shape="" offset="132228" size="4" />
			<output>
				<port id="0" precision="FP32" />
			</output>
		</layer>
		<layer id="45" name="__module.model.23.cv3.2.1.1.act/aten::silu_/Swish_2/fq_output_0" type="FakeQuantize" version="opset1">
			<data levels="256" auto_broadcast="numpy" />
			<input>
				<port id="0" precision="FP32">
					<dim>1</dim>
					<dim>128</dim>
					<dim>120</dim>
					<dim>120</dim>
				</port>
				<port id="1" precision="FP32" />
				<port id="2" precision="FP32" />
				<port id="3" precision="FP32" />
				<port id="4" precision="FP32" />
			</input>
			<output>
				<port id="5" precision="FP32">
					<dim>1</dim>
					<dim>128</dim>
					<dim>120</dim>
					<dim>120</dim>
				</port>
			</output>
		</layer>
		<layer id="46" name="113" type="Const" version="opset1">
			<data element_type="i64" shape="" offset="132232" size="8" />
			<output>
				<port id="0" precision="I64" names="113" />
			</output>
		</layer>
		<layer id="47" name="Constant_1634458" type="Const" version="opset1">
			<data element_type="i64" shape="2" offset="132240" size="16" />
			<output>
				<port id="0" precision="I64">
					<dim>2</dim>
				</port>
			</output>
		</layer>
		<layer id="48" name="__module.model.2/aten::split_with_sizes/VariadicSplit" type="VariadicSplit" version="opset1">
			<input>
				<port id="0" precision="FP32">
					<dim>1</dim>
					<dim>128</dim>
					<dim>120</dim>
					<dim>120</dim>
				</port>
				<port id="1" precision="I64" />
				<port id="2" precision="I64">
					<dim>2</dim>
				</port>
			</input>
			<output>
				<port id="3" precision="FP32" names="129">
					<dim>1</dim>
					<dim>64</dim>
					<dim>120</dim>
					<dim>120</dim>
				</port>
				<port id="4" precision="FP32" names="130,input.11">
					<dim>1</dim>
					<dim>64</dim>
					<dim>120</dim>
					<dim>120</dim>
				</port>
			</output>
		</layer>
		<layer id="49" name="Constant_2245384" type="Const" version="opset1">
			<data element_type="i8" shape="32, 64, 1, 1" offset="132256" size="2048" />
			<output>
				<port id="0" precision="I8">
					<dim>32</dim>
					<dim>64</dim>
					<dim>1</dim>
					<dim>1</dim>
				</port>
			</output>
		</layer>
		<layer id="50" name="Convert_2245385" type="Convert" version="opset1">
			<data destination_type="f32" />
			<input>
				<port id="0" precision="I8">
					<dim>32</dim>
					<dim>64</dim>
					<dim>1</dim>
					<dim>1</dim>
				</port>
			</input>
			<output>
				<port id="1" precision="FP32">
					<dim>32</dim>
					<dim>64</dim>
					<dim>1</dim>
					<dim>1</dim>
				</port>
			</output>
		</layer>
		<layer id="51" name="Constant_2245386" type="Const" version="opset1">
			<data element_type="f32" shape="32, 1, 1, 1" offset="134304" size="128" />
			<output>
				<port id="0" precision="FP32">
					<dim>32</dim>
					<dim>1</dim>
					<dim>1</dim>
					<dim>1</dim>
				</port>
			</output>
		</layer>
		<layer id="52" name="__module.model.2.m.0.cv1.conv/aten::_convolution/Convolution/fq_weights_1" type="Multiply" version="opset1">
			<data auto_broadcast="numpy" />
			<input>
				<port id="0" precision="FP32">
					<dim>32</dim>
					<dim>64</dim>
					<dim>1</dim>
					<dim>1</dim>
				</port>
				<port id="1" precision="FP32">
					<dim>32</dim>
					<dim>1</dim>
					<dim>1</dim>
					<dim>1</dim>
				</port>
			</input>
			<output>
				<port id="2" precision="FP32">
					<dim>32</dim>
					<dim>64</dim>
					<dim>1</dim>
					<dim>1</dim>
				</port>
			</output>
		</layer>
		<layer id="53" name="__module.model.2.m.0.cv1.conv/aten::_convolution/Convolution" type="Convolution" version="opset1">
			<data strides="1, 1" dilations="1, 1" pads_begin="0, 0" pads_end="0, 0" auto_pad="explicit" />
			<input>
				<port id="0" precision="FP32">
					<dim>1</dim>
					<dim>64</dim>
					<dim>120</dim>
					<dim>120</dim>
				</port>
				<port id="1" precision="FP32">
					<dim>32</dim>
					<dim>64</dim>
					<dim>1</dim>
					<dim>1</dim>
				</port>
			</input>
			<output>
				<port id="2" precision="FP32">
					<dim>1</dim>
					<dim>32</dim>
					<dim>120</dim>
					<dim>120</dim>
				</port>
			</output>
		</layer>
		<layer id="54" name="__module.model.2.m.0.cv1.conv/aten::_convolution/Reshape" type="Const" version="opset1">
			<data element_type="f32" shape="1, 32, 1, 1" offset="134432" size="128" />
			<output>
				<port id="0" precision="FP32">
					<dim>1</dim>
					<dim>32</dim>
					<dim>1</dim>
					<dim>1</dim>
				</port>
			</output>
		</layer>
		<layer id="55" name="__module.model.2.m.0.cv1.conv/aten::_convolution/Add" type="Add" version="opset1">
			<data auto_broadcast="numpy" />
			<input>
				<port id="0" precision="FP32">
					<dim>1</dim>
					<dim>32</dim>
					<dim>120</dim>
					<dim>120</dim>
				</port>
				<port id="1" precision="FP32">
					<dim>1</dim>
					<dim>32</dim>
					<dim>1</dim>
					<dim>1</dim>
				</port>
			</input>
			<output>
				<port id="2" precision="FP32" names="142_1">
					<dim>1</dim>
					<dim>32</dim>
					<dim>120</dim>
					<dim>120</dim>
				</port>
			</output>
		</layer>
		<layer id="56" name="__module.model.23.cv3.2.1.1.act/aten::silu_/Swish_3" type="Swish" version="opset4">
			<input>
				<port id="0" precision="FP32">
					<dim>1</dim>
					<dim>32</dim>
					<dim>120</dim>
					<dim>120</dim>
				</port>
			</input>
			<output>
				<port id="1" precision="FP32" names="142,input.13">
					<dim>1</dim>
					<dim>32</dim>
					<dim>120</dim>
					<dim>120</dim>
				</port>
			</output>
		</layer>
		<layer id="57" name="__module.model.23.cv3.2.1.1.act/aten::silu_/Swish_3/fq_output_0/input_low" type="Const" version="opset1">
			<data element_type="f32" shape="" offset="114808" size="4" />
			<output>
				<port id="0" precision="FP32" />
			</output>
		</layer>
		<layer id="58" name="__module.model.23.cv3.2.1.1.act/aten::silu_/Swish_3/fq_output_0/input_high" type="Const" version="opset1">
			<data element_type="f32" shape="" offset="134560" size="4" />
			<output>
				<port id="0" precision="FP32" />
			</output>
		</layer>
		<layer id="59" name="__module.model.23.cv3.2.1.1.act/aten::silu_/Swish_3/fq_output_0/output_low" type="Const" version="opset1">
			<data element_type="f32" shape="" offset="114808" size="4" />
			<output>
				<port id="0" precision="FP32" />
			</output>
		</layer>
		<layer id="60" name="__module.model.23.cv3.2.1.1.act/aten::silu_/Swish_3/fq_output_0/output_high" type="Const" version="opset1">
			<data element_type="f32" shape="" offset="134560" size="4" />
			<output>
				<port id="0" precision="FP32" />
			</output>
		</layer>
		<layer id="61" name="__module.model.23.cv3.2.1.1.act/aten::silu_/Swish_3/fq_output_0" type="FakeQuantize" version="opset1">
			<data levels="256" auto_broadcast="numpy" />
			<input>
				<port id="0" precision="FP32">
					<dim>1</dim>
					<dim>32</dim>
					<dim>120</dim>
					<dim>120</dim>
				</port>
				<port id="1" precision="FP32" />
				<port id="2" precision="FP32" />
				<port id="3" precision="FP32" />
				<port id="4" precision="FP32" />
			</input>
			<output>
				<port id="5" precision="FP32">
					<dim>1</dim>
					<dim>32</dim>
					<dim>120</dim>
					<dim>120</dim>
				</port>
			</output>
		</layer>
		<layer id="62" name="Constant_2245388" type="Const" version="opset1">
			<data element_type="i8" shape="32, 32, 3, 3" offset="134564" size="9216" />
			<output>
				<port id="0" precision="I8">
					<dim>32</dim>
					<dim>32</dim>
					<dim>3</dim>
					<dim>3</dim>
				</port>
			</output>
		</layer>
		<layer id="63" name="Convert_2245389" type="Convert" version="opset1">
			<data destination_type="f32" />
			<input>
				<port id="0" precision="I8">
					<dim>32</dim>
					<dim>32</dim>
					<dim>3</dim>
					<dim>3</dim>
				</port>
			</input>
			<output>
				<port id="1" precision="FP32">
					<dim>32</dim>
					<dim>32</dim>
					<dim>3</dim>
					<dim>3</dim>
				</port>
			</output>
		</layer>
		<layer id="64" name="Constant_2245390" type="Const" version="opset1">
			<data element_type="f32" shape="32, 1, 1, 1" offset="143780" size="128" />
			<output>
				<port id="0" precision="FP32">
					<dim>32</dim>
					<dim>1</dim>
					<dim>1</dim>
					<dim>1</dim>
				</port>
			</output>
		</layer>
		<layer id="65" name="__module.model.2.m.0.m.0.cv1.conv/aten::_convolution/Convolution/fq_weights_1" type="Multiply" version="opset1">
			<data auto_broadcast="numpy" />
			<input>
				<port id="0" precision="FP32">
					<dim>32</dim>
					<dim>32</dim>
					<dim>3</dim>
					<dim>3</dim>
				</port>
				<port id="1" precision="FP32">
					<dim>32</dim>
					<dim>1</dim>
					<dim>1</dim>
					<dim>1</dim>
				</port>
			</input>
			<output>
				<port id="2" precision="FP32">
					<dim>32</dim>
					<dim>32</dim>
					<dim>3</dim>
					<dim>3</dim>
				</port>
			</output>
		</layer>
		<layer id="66" name="__module.model.2.m.0.m.0.cv1.conv/aten::_convolution/Convolution" type="Convolution" version="opset1">
			<data strides="1, 1" dilations="1, 1" pads_begin="1, 1" pads_end="1, 1" auto_pad="explicit" />
			<input>
				<port id="0" precision="FP32">
					<dim>1</dim>
					<dim>32</dim>
					<dim>120</dim>
					<dim>120</dim>
				</port>
				<port id="1" precision="FP32">
					<dim>32</dim>
					<dim>32</dim>
					<dim>3</dim>
					<dim>3</dim>
				</port>
			</input>
			<output>
				<port id="2" precision="FP32">
					<dim>1</dim>
					<dim>32</dim>
					<dim>120</dim>
					<dim>120</dim>
				</port>
			</output>
		</layer>
		<layer id="67" name="__module.model.2.m.0.m.0.cv1.conv/aten::_convolution/Reshape" type="Const" version="opset1">
			<data element_type="f32" shape="1, 32, 1, 1" offset="143908" size="128" />
			<output>
				<port id="0" precision="FP32">
					<dim>1</dim>
					<dim>32</dim>
					<dim>1</dim>
					<dim>1</dim>
				</port>
			</output>
		</layer>
		<layer id="68" name="__module.model.2.m.0.m.0.cv1.conv/aten::_convolution/Add" type="Add" version="opset1">
			<data auto_broadcast="numpy" />
			<input>
				<port id="0" precision="FP32">
					<dim>1</dim>
					<dim>32</dim>
					<dim>120</dim>
					<dim>120</dim>
				</port>
				<port id="1" precision="FP32">
					<dim>1</dim>
					<dim>32</dim>
					<dim>1</dim>
					<dim>1</dim>
				</port>
			</input>
			<output>
				<port id="2" precision="FP32" names="155_1">
					<dim>1</dim>
					<dim>32</dim>
					<dim>120</dim>
					<dim>120</dim>
				</port>
			</output>
		</layer>
		<layer id="69" name="__module.model.23.cv3.2.1.1.act/aten::silu_/Swish_4" type="Swish" version="opset4">
			<input>
				<port id="0" precision="FP32">
					<dim>1</dim>
					<dim>32</dim>
					<dim>120</dim>
					<dim>120</dim>
				</port>
			</input>
			<output>
				<port id="1" precision="FP32" names="155,input.17">
					<dim>1</dim>
					<dim>32</dim>
					<dim>120</dim>
					<dim>120</dim>
				</port>
			</output>
		</layer>
		<layer id="70" name="__module.model.23.cv3.2.1.1.act/aten::silu_/Swish_4/fq_output_0/input_low" type="Const" version="opset1">
			<data element_type="f32" shape="" offset="144036" size="4" />
			<output>
				<port id="0" precision="FP32" />
			</output>
		</layer>
		<layer id="71" name="__module.model.23.cv3.2.1.1.act/aten::silu_/Swish_4/fq_output_0/input_high" type="Const" version="opset1">
			<data element_type="f32" shape="" offset="144040" size="4" />
			<output>
				<port id="0" precision="FP32" />
			</output>
		</layer>
		<layer id="72" name="__module.model.23.cv3.2.1.1.act/aten::silu_/Swish_4/fq_output_0/output_low" type="Const" version="opset1">
			<data element_type="f32" shape="" offset="144036" size="4" />
			<output>
				<port id="0" precision="FP32" />
			</output>
		</layer>
		<layer id="73" name="__module.model.23.cv3.2.1.1.act/aten::silu_/Swish_4/fq_output_0/output_high" type="Const" version="opset1">
			<data element_type="f32" shape="" offset="144040" size="4" />
			<output>
				<port id="0" precision="FP32" />
			</output>
		</layer>
		<layer id="74" name="__module.model.23.cv3.2.1.1.act/aten::silu_/Swish_4/fq_output_0" type="FakeQuantize" version="opset1">
			<data levels="256" auto_broadcast="numpy" />
			<input>
				<port id="0" precision="FP32">
					<dim>1</dim>
					<dim>32</dim>
					<dim>120</dim>
					<dim>120</dim>
				</port>
				<port id="1" precision="FP32" />
				<port id="2" precision="FP32" />
				<port id="3" precision="FP32" />
				<port id="4" precision="FP32" />
			</input>
			<output>
				<port id="5" precision="FP32">
					<dim>1</dim>
					<dim>32</dim>
					<dim>120</dim>
					<dim>120</dim>
				</port>
			</output>
		</layer>
		<layer id="75" name="Constant_2245392" type="Const" version="opset1">
			<data element_type="i8" shape="32, 32, 3, 3" offset="144044" size="9216" />
			<output>
				<port id="0" precision="I8">
					<dim>32</dim>
					<dim>32</dim>
					<dim>3</dim>
					<dim>3</dim>
				</port>
			</output>
		</layer>
		<layer id="76" name="Convert_2245393" type="Convert" version="opset1">
			<data destination_type="f32" />
			<input>
				<port id="0" precision="I8">
					<dim>32</dim>
					<dim>32</dim>
					<dim>3</dim>
					<dim>3</dim>
				</port>
			</input>
			<output>
				<port id="1" precision="FP32">
					<dim>32</dim>
					<dim>32</dim>
					<dim>3</dim>
					<dim>3</dim>
				</port>
			</output>
		</layer>
		<layer id="77" name="Constant_2245394" type="Const" version="opset1">
			<data element_type="f32" shape="32, 1, 1, 1" offset="153260" size="128" />
			<output>
				<port id="0" precision="FP32">
					<dim>32</dim>
					<dim>1</dim>
					<dim>1</dim>
					<dim>1</dim>
				</port>
			</output>
		</layer>
		<layer id="78" name="__module.model.2.m.0.m.0.cv2.conv/aten::_convolution/Convolution/fq_weights_1" type="Multiply" version="opset1">
			<data auto_broadcast="numpy" />
			<input>
				<port id="0" precision="FP32">
					<dim>32</dim>
					<dim>32</dim>
					<dim>3</dim>
					<dim>3</dim>
				</port>
				<port id="1" precision="FP32">
					<dim>32</dim>
					<dim>1</dim>
					<dim>1</dim>
					<dim>1</dim>
				</port>
			</input>
			<output>
				<port id="2" precision="FP32">
					<dim>32</dim>
					<dim>32</dim>
					<dim>3</dim>
					<dim>3</dim>
				</port>
			</output>
		</layer>
		<layer id="79" name="__module.model.2.m.0.m.0.cv2.conv/aten::_convolution/Convolution" type="Convolution" version="opset1">
			<data strides="1, 1" dilations="1, 1" pads_begin="1, 1" pads_end="1, 1" auto_pad="explicit" />
			<input>
				<port id="0" precision="FP32">
					<dim>1</dim>
					<dim>32</dim>
					<dim>120</dim>
					<dim>120</dim>
				</port>
				<port id="1" precision="FP32">
					<dim>32</dim>
					<dim>32</dim>
					<dim>3</dim>
					<dim>3</dim>
				</port>
			</input>
			<output>
				<port id="2" precision="FP32">
					<dim>1</dim>
					<dim>32</dim>
					<dim>120</dim>
					<dim>120</dim>
				</port>
			</output>
		</layer>
		<layer id="80" name="__module.model.2.m.0.m.0.cv2.conv/aten::_convolution/Reshape" type="Const" version="opset1">
			<data element_type="f32" shape="1, 32, 1, 1" offset="153388" size="128" />
			<output>
				<port id="0" precision="FP32">
					<dim>1</dim>
					<dim>32</dim>
					<dim>1</dim>
					<dim>1</dim>
				</port>
			</output>
		</layer>
		<layer id="81" name="__module.model.2.m.0.m.0.cv2.conv/aten::_convolution/Add" type="Add" version="opset1">
			<data auto_broadcast="numpy" />
			<input>
				<port id="0" precision="FP32">
					<dim>1</dim>
					<dim>32</dim>
					<dim>120</dim>
					<dim>120</dim>
				</port>
				<port id="1" precision="FP32">
					<dim>1</dim>
					<dim>32</dim>
					<dim>1</dim>
					<dim>1</dim>
				</port>
			</input>
			<output>
				<port id="2" precision="FP32" names="164_1">
					<dim>1</dim>
					<dim>32</dim>
					<dim>120</dim>
					<dim>120</dim>
				</port>
			</output>
		</layer>
		<layer id="82" name="__module.model.23.cv3.2.1.1.act/aten::silu_/Swish_5" type="Swish" version="opset4">
			<input>
				<port id="0" precision="FP32">
					<dim>1</dim>
					<dim>32</dim>
					<dim>120</dim>
					<dim>120</dim>
				</port>
			</input>
			<output>
				<port id="1" precision="FP32" names="164,input.21">
					<dim>1</dim>
					<dim>32</dim>
					<dim>120</dim>
					<dim>120</dim>
				</port>
			</output>
		</layer>
		<layer id="83" name="__module.model.23.cv3.2.1.1.act/aten::silu_/Swish_5/fq_output_0/input_low" type="Const" version="opset1">
			<data element_type="f32" shape="" offset="114808" size="4" />
			<output>
				<port id="0" precision="FP32" />
			</output>
		</layer>
		<layer id="84" name="__module.model.23.cv3.2.1.1.act/aten::silu_/Swish_5/fq_output_0/input_high" type="Const" version="opset1">
			<data element_type="f32" shape="" offset="153516" size="4" />
			<output>
				<port id="0" precision="FP32" />
			</output>
		</layer>
		<layer id="85" name="__module.model.23.cv3.2.1.1.act/aten::silu_/Swish_5/fq_output_0/output_low" type="Const" version="opset1">
			<data element_type="f32" shape="" offset="114808" size="4" />
			<output>
				<port id="0" precision="FP32" />
			</output>
		</layer>
		<layer id="86" name="__module.model.23.cv3.2.1.1.act/aten::silu_/Swish_5/fq_output_0/output_high" type="Const" version="opset1">
			<data element_type="f32" shape="" offset="153516" size="4" />
			<output>
				<port id="0" precision="FP32" />
			</output>
		</layer>
		<layer id="87" name="__module.model.23.cv3.2.1.1.act/aten::silu_/Swish_5/fq_output_0" type="FakeQuantize" version="opset1">
			<data levels="256" auto_broadcast="numpy" />
			<input>
				<port id="0" precision="FP32">
					<dim>1</dim>
					<dim>32</dim>
					<dim>120</dim>
					<dim>120</dim>
				</port>
				<port id="1" precision="FP32" />
				<port id="2" precision="FP32" />
				<port id="3" precision="FP32" />
				<port id="4" precision="FP32" />
			</input>
			<output>
				<port id="5" precision="FP32">
					<dim>1</dim>
					<dim>32</dim>
					<dim>120</dim>
					<dim>120</dim>
				</port>
			</output>
		</layer>
		<layer id="88" name="__module.model.2.m.0.m.0/aten::add/Add" type="Add" version="opset1">
			<data auto_broadcast="numpy" />
			<input>
				<port id="0" precision="FP32">
					<dim>1</dim>
					<dim>32</dim>
					<dim>120</dim>
					<dim>120</dim>
				</port>
				<port id="1" precision="FP32">
					<dim>1</dim>
					<dim>32</dim>
					<dim>120</dim>
					<dim>120</dim>
				</port>
			</input>
			<output>
				<port id="2" precision="FP32" names="166,input.23">
					<dim>1</dim>
					<dim>32</dim>
					<dim>120</dim>
					<dim>120</dim>
				</port>
			</output>
		</layer>
		<layer id="89" name="__module.model.2.m.0.m.0/aten::add/Add/fq_output_0/input_low" type="Const" version="opset1">
			<data element_type="f32" shape="" offset="153520" size="4" />
			<output>
				<port id="0" precision="FP32" />
			</output>
		</layer>
		<layer id="90" name="__module.model.2.m.0.m.0/aten::add/Add/fq_output_0/input_high" type="Const" version="opset1">
			<data element_type="f32" shape="" offset="153524" size="4" />
			<output>
				<port id="0" precision="FP32" />
			</output>
		</layer>
		<layer id="91" name="__module.model.2.m.0.m.0/aten::add/Add/fq_output_0/output_low" type="Const" version="opset1">
			<data element_type="f32" shape="" offset="153520" size="4" />
			<output>
				<port id="0" precision="FP32" />
			</output>
		</layer>
		<layer id="92" name="__module.model.2.m.0.m.0/aten::add/Add/fq_output_0/output_high" type="Const" version="opset1">
			<data element_type="f32" shape="" offset="153524" size="4" />
			<output>
				<port id="0" precision="FP32" />
			</output>
		</layer>
		<layer id="93" name="__module.model.2.m.0.m.0/aten::add/Add/fq_output_0" type="FakeQuantize" version="opset1">
			<data levels="256" auto_broadcast="numpy" />
			<input>
				<port id="0" precision="FP32">
					<dim>1</dim>
					<dim>32</dim>
					<dim>120</dim>
					<dim>120</dim>
				</port>
				<port id="1" precision="FP32" />
				<port id="2" precision="FP32" />
				<port id="3" precision="FP32" />
				<port id="4" precision="FP32" />
			</input>
			<output>
				<port id="5" precision="FP32">
					<dim>1</dim>
					<dim>32</dim>
					<dim>120</dim>
					<dim>120</dim>
				</port>
			</output>
		</layer>
		<layer id="94" name="Constant_2245396" type="Const" version="opset1">
			<data element_type="i8" shape="32, 32, 3, 3" offset="153528" size="9216" />
			<output>
				<port id="0" precision="I8">
					<dim>32</dim>
					<dim>32</dim>
					<dim>3</dim>
					<dim>3</dim>
				</port>
			</output>
		</layer>
		<layer id="95" name="Convert_2245397" type="Convert" version="opset1">
			<data destination_type="f32" />
			<input>
				<port id="0" precision="I8">
					<dim>32</dim>
					<dim>32</dim>
					<dim>3</dim>
					<dim>3</dim>
				</port>
			</input>
			<output>
				<port id="1" precision="FP32">
					<dim>32</dim>
					<dim>32</dim>
					<dim>3</dim>
					<dim>3</dim>
				</port>
			</output>
		</layer>
		<layer id="96" name="Constant_2245398" type="Const" version="opset1">
			<data element_type="f32" shape="32, 1, 1, 1" offset="162744" size="128" />
			<output>
				<port id="0" precision="FP32">
					<dim>32</dim>
					<dim>1</dim>
					<dim>1</dim>
					<dim>1</dim>
				</port>
			</output>
		</layer>
		<layer id="97" name="__module.model.2.m.0.m.1.cv1.conv/aten::_convolution/Convolution/fq_weights_1" type="Multiply" version="opset1">
			<data auto_broadcast="numpy" />
			<input>
				<port id="0" precision="FP32">
					<dim>32</dim>
					<dim>32</dim>
					<dim>3</dim>
					<dim>3</dim>
				</port>
				<port id="1" precision="FP32">
					<dim>32</dim>
					<dim>1</dim>
					<dim>1</dim>
					<dim>1</dim>
				</port>
			</input>
			<output>
				<port id="2" precision="FP32">
					<dim>32</dim>
					<dim>32</dim>
					<dim>3</dim>
					<dim>3</dim>
				</port>
			</output>
		</layer>
		<layer id="98" name="__module.model.2.m.0.m.1.cv1.conv/aten::_convolution/Convolution" type="Convolution" version="opset1">
			<data strides="1, 1" dilations="1, 1" pads_begin="1, 1" pads_end="1, 1" auto_pad="explicit" />
			<input>
				<port id="0" precision="FP32">
					<dim>1</dim>
					<dim>32</dim>
					<dim>120</dim>
					<dim>120</dim>
				</port>
				<port id="1" precision="FP32">
					<dim>32</dim>
					<dim>32</dim>
					<dim>3</dim>
					<dim>3</dim>
				</port>
			</input>
			<output>
				<port id="2" precision="FP32">
					<dim>1</dim>
					<dim>32</dim>
					<dim>120</dim>
					<dim>120</dim>
				</port>
			</output>
		</layer>
		<layer id="99" name="__module.model.2.m.0.m.1.cv1.conv/aten::_convolution/Reshape" type="Const" version="opset1">
			<data element_type="f32" shape="1, 32, 1, 1" offset="162872" size="128" />
			<output>
				<port id="0" precision="FP32">
					<dim>1</dim>
					<dim>32</dim>
					<dim>1</dim>
					<dim>1</dim>
				</port>
			</output>
		</layer>
		<layer id="100" name="__module.model.2.m.0.m.1.cv1.conv/aten::_convolution/Add" type="Add" version="opset1">
			<data auto_broadcast="numpy" />
			<input>
				<port id="0" precision="FP32">
					<dim>1</dim>
					<dim>32</dim>
					<dim>120</dim>
					<dim>120</dim>
				</port>
				<port id="1" precision="FP32">
					<dim>1</dim>
					<dim>32</dim>
					<dim>1</dim>
					<dim>1</dim>
				</port>
			</input>
			<output>
				<port id="2" precision="FP32" names="176_1">
					<dim>1</dim>
					<dim>32</dim>
					<dim>120</dim>
					<dim>120</dim>
				</port>
			</output>
		</layer>
		<layer id="101" name="__module.model.23.cv3.2.1.1.act/aten::silu_/Swish_6" type="Swish" version="opset4">
			<input>
				<port id="0" precision="FP32">
					<dim>1</dim>
					<dim>32</dim>
					<dim>120</dim>
					<dim>120</dim>
				</port>
			</input>
			<output>
				<port id="1" precision="FP32" names="176,input.25">
					<dim>1</dim>
					<dim>32</dim>
					<dim>120</dim>
					<dim>120</dim>
				</port>
			</output>
		</layer>
		<layer id="102" name="__module.model.23.cv3.2.1.1.act/aten::silu_/Swish_6/fq_output_0/input_low" type="Const" version="opset1">
			<data element_type="f32" shape="" offset="163000" size="4" />
			<output>
				<port id="0" precision="FP32" />
			</output>
		</layer>
		<layer id="103" name="__module.model.23.cv3.2.1.1.act/aten::silu_/Swish_6/fq_output_0/input_high" type="Const" version="opset1">
			<data element_type="f32" shape="" offset="163004" size="4" />
			<output>
				<port id="0" precision="FP32" />
			</output>
		</layer>
		<layer id="104" name="__module.model.23.cv3.2.1.1.act/aten::silu_/Swish_6/fq_output_0/output_low" type="Const" version="opset1">
			<data element_type="f32" shape="" offset="163000" size="4" />
			<output>
				<port id="0" precision="FP32" />
			</output>
		</layer>
		<layer id="105" name="__module.model.23.cv3.2.1.1.act/aten::silu_/Swish_6/fq_output_0/output_high" type="Const" version="opset1">
			<data element_type="f32" shape="" offset="163004" size="4" />
			<output>
				<port id="0" precision="FP32" />
			</output>
		</layer>
		<layer id="106" name="__module.model.23.cv3.2.1.1.act/aten::silu_/Swish_6/fq_output_0" type="FakeQuantize" version="opset1">
			<data levels="256" auto_broadcast="numpy" />
			<input>
				<port id="0" precision="FP32">
					<dim>1</dim>
					<dim>32</dim>
					<dim>120</dim>
					<dim>120</dim>
				</port>
				<port id="1" precision="FP32" />
				<port id="2" precision="FP32" />
				<port id="3" precision="FP32" />
				<port id="4" precision="FP32" />
			</input>
			<output>
				<port id="5" precision="FP32">
					<dim>1</dim>
					<dim>32</dim>
					<dim>120</dim>
					<dim>120</dim>
				</port>
			</output>
		</layer>
		<layer id="107" name="Constant_2245400" type="Const" version="opset1">
			<data element_type="i8" shape="32, 32, 3, 3" offset="163008" size="9216" />
			<output>
				<port id="0" precision="I8">
					<dim>32</dim>
					<dim>32</dim>
					<dim>3</dim>
					<dim>3</dim>
				</port>
			</output>
		</layer>
		<layer id="108" name="Convert_2245401" type="Convert" version="opset1">
			<data destination_type="f32" />
			<input>
				<port id="0" precision="I8">
					<dim>32</dim>
					<dim>32</dim>
					<dim>3</dim>
					<dim>3</dim>
				</port>
			</input>
			<output>
				<port id="1" precision="FP32">
					<dim>32</dim>
					<dim>32</dim>
					<dim>3</dim>
					<dim>3</dim>
				</port>
			</output>
		</layer>
		<layer id="109" name="Constant_2245402" type="Const" version="opset1">
			<data element_type="f32" shape="32, 1, 1, 1" offset="172224" size="128" />
			<output>
				<port id="0" precision="FP32">
					<dim>32</dim>
					<dim>1</dim>
					<dim>1</dim>
					<dim>1</dim>
				</port>
			</output>
		</layer>
		<layer id="110" name="__module.model.2.m.0.m.1.cv2.conv/aten::_convolution/Convolution/fq_weights_1" type="Multiply" version="opset1">
			<data auto_broadcast="numpy" />
			<input>
				<port id="0" precision="FP32">
					<dim>32</dim>
					<dim>32</dim>
					<dim>3</dim>
					<dim>3</dim>
				</port>
				<port id="1" precision="FP32">
					<dim>32</dim>
					<dim>1</dim>
					<dim>1</dim>
					<dim>1</dim>
				</port>
			</input>
			<output>
				<port id="2" precision="FP32">
					<dim>32</dim>
					<dim>32</dim>
					<dim>3</dim>
					<dim>3</dim>
				</port>
			</output>
		</layer>
		<layer id="111" name="__module.model.2.m.0.m.1.cv2.conv/aten::_convolution/Convolution" type="Convolution" version="opset1">
			<data strides="1, 1" dilations="1, 1" pads_begin="1, 1" pads_end="1, 1" auto_pad="explicit" />
			<input>
				<port id="0" precision="FP32">
					<dim>1</dim>
					<dim>32</dim>
					<dim>120</dim>
					<dim>120</dim>
				</port>
				<port id="1" precision="FP32">
					<dim>32</dim>
					<dim>32</dim>
					<dim>3</dim>
					<dim>3</dim>
				</port>
			</input>
			<output>
				<port id="2" precision="FP32">
					<dim>1</dim>
					<dim>32</dim>
					<dim>120</dim>
					<dim>120</dim>
				</port>
			</output>
		</layer>
		<layer id="112" name="__module.model.2.m.0.m.1.cv2.conv/aten::_convolution/Reshape" type="Const" version="opset1">
			<data element_type="f32" shape="1, 32, 1, 1" offset="172352" size="128" />
			<output>
				<port id="0" precision="FP32">
					<dim>1</dim>
					<dim>32</dim>
					<dim>1</dim>
					<dim>1</dim>
				</port>
			</output>
		</layer>
		<layer id="113" name="__module.model.2.m.0.m.1.cv2.conv/aten::_convolution/Add" type="Add" version="opset1">
			<data auto_broadcast="numpy" />
			<input>
				<port id="0" precision="FP32">
					<dim>1</dim>
					<dim>32</dim>
					<dim>120</dim>
					<dim>120</dim>
				</port>
				<port id="1" precision="FP32">
					<dim>1</dim>
					<dim>32</dim>
					<dim>1</dim>
					<dim>1</dim>
				</port>
			</input>
			<output>
				<port id="2" precision="FP32" names="185_1">
					<dim>1</dim>
					<dim>32</dim>
					<dim>120</dim>
					<dim>120</dim>
				</port>
			</output>
		</layer>
		<layer id="114" name="__module.model.23.cv3.2.1.1.act/aten::silu_/Swish_7" type="Swish" version="opset4">
			<input>
				<port id="0" precision="FP32">
					<dim>1</dim>
					<dim>32</dim>
					<dim>120</dim>
					<dim>120</dim>
				</port>
			</input>
			<output>
				<port id="1" precision="FP32" names="185,input.29">
					<dim>1</dim>
					<dim>32</dim>
					<dim>120</dim>
					<dim>120</dim>
				</port>
			</output>
		</layer>
		<layer id="115" name="__module.model.23.cv3.2.1.1.act/aten::silu_/Swish_7/fq_output_0/input_low" type="Const" version="opset1">
			<data element_type="f32" shape="" offset="172480" size="4" />
			<output>
				<port id="0" precision="FP32" />
			</output>
		</layer>
		<layer id="116" name="__module.model.23.cv3.2.1.1.act/aten::silu_/Swish_7/fq_output_0/input_high" type="Const" version="opset1">
			<data element_type="f32" shape="" offset="172484" size="4" />
			<output>
				<port id="0" precision="FP32" />
			</output>
		</layer>
		<layer id="117" name="__module.model.23.cv3.2.1.1.act/aten::silu_/Swish_7/fq_output_0/output_low" type="Const" version="opset1">
			<data element_type="f32" shape="" offset="172480" size="4" />
			<output>
				<port id="0" precision="FP32" />
			</output>
		</layer>
		<layer id="118" name="__module.model.23.cv3.2.1.1.act/aten::silu_/Swish_7/fq_output_0/output_high" type="Const" version="opset1">
			<data element_type="f32" shape="" offset="172484" size="4" />
			<output>
				<port id="0" precision="FP32" />
			</output>
		</layer>
		<layer id="119" name="__module.model.23.cv3.2.1.1.act/aten::silu_/Swish_7/fq_output_0" type="FakeQuantize" version="opset1">
			<data levels="256" auto_broadcast="numpy" />
			<input>
				<port id="0" precision="FP32">
					<dim>1</dim>
					<dim>32</dim>
					<dim>120</dim>
					<dim>120</dim>
				</port>
				<port id="1" precision="FP32" />
				<port id="2" precision="FP32" />
				<port id="3" precision="FP32" />
				<port id="4" precision="FP32" />
			</input>
			<output>
				<port id="5" precision="FP32">
					<dim>1</dim>
					<dim>32</dim>
					<dim>120</dim>
					<dim>120</dim>
				</port>
			</output>
		</layer>
		<layer id="120" name="__module.model.2.m.0.m.1/aten::add/Add" type="Add" version="opset1">
			<data auto_broadcast="numpy" />
			<input>
				<port id="0" precision="FP32">
					<dim>1</dim>
					<dim>32</dim>
					<dim>120</dim>
					<dim>120</dim>
				</port>
				<port id="1" precision="FP32">
					<dim>1</dim>
					<dim>32</dim>
					<dim>120</dim>
					<dim>120</dim>
				</port>
			</input>
			<output>
				<port id="2" precision="FP32" names="187">
					<dim>1</dim>
					<dim>32</dim>
					<dim>120</dim>
					<dim>120</dim>
				</port>
			</output>
		</layer>
		<layer id="121" name="__module.model.2.m.0.m.1/aten::add/Add/fq_output_0/input_low" type="Const" version="opset1">
			<data element_type="f32" shape="" offset="172488" size="4" />
			<output>
				<port id="0" precision="FP32" />
			</output>
		</layer>
		<layer id="122" name="__module.model.2.m.0.m.1/aten::add/Add/fq_output_0/input_high" type="Const" version="opset1">
			<data element_type="f32" shape="" offset="172492" size="4" />
			<output>
				<port id="0" precision="FP32" />
			</output>
		</layer>
		<layer id="123" name="__module.model.2.m.0.m.1/aten::add/Add/fq_output_0/output_low" type="Const" version="opset1">
			<data element_type="f32" shape="" offset="172488" size="4" />
			<output>
				<port id="0" precision="FP32" />
			</output>
		</layer>
		<layer id="124" name="__module.model.2.m.0.m.1/aten::add/Add/fq_output_0/output_high" type="Const" version="opset1">
			<data element_type="f32" shape="" offset="172492" size="4" />
			<output>
				<port id="0" precision="FP32" />
			</output>
		</layer>
		<layer id="125" name="__module.model.2.m.0.m.1/aten::add/Add/fq_output_0" type="FakeQuantize" version="opset1">
			<data levels="256" auto_broadcast="numpy" />
			<input>
				<port id="0" precision="FP32">
					<dim>1</dim>
					<dim>32</dim>
					<dim>120</dim>
					<dim>120</dim>
				</port>
				<port id="1" precision="FP32" />
				<port id="2" precision="FP32" />
				<port id="3" precision="FP32" />
				<port id="4" precision="FP32" />
			</input>
			<output>
				<port id="5" precision="FP32">
					<dim>1</dim>
					<dim>32</dim>
					<dim>120</dim>
					<dim>120</dim>
				</port>
			</output>
		</layer>
		<layer id="126" name="Constant_2245404" type="Const" version="opset1">
			<data element_type="i8" shape="32, 64, 1, 1" offset="172496" size="2048" />
			<output>
				<port id="0" precision="I8">
					<dim>32</dim>
					<dim>64</dim>
					<dim>1</dim>
					<dim>1</dim>
				</port>
			</output>
		</layer>
		<layer id="127" name="Convert_2245405" type="Convert" version="opset1">
			<data destination_type="f32" />
			<input>
				<port id="0" precision="I8">
					<dim>32</dim>
					<dim>64</dim>
					<dim>1</dim>
					<dim>1</dim>
				</port>
			</input>
			<output>
				<port id="1" precision="FP32">
					<dim>32</dim>
					<dim>64</dim>
					<dim>1</dim>
					<dim>1</dim>
				</port>
			</output>
		</layer>
		<layer id="128" name="Constant_2245406" type="Const" version="opset1">
			<data element_type="f32" shape="32, 1, 1, 1" offset="174544" size="128" />
			<output>
				<port id="0" precision="FP32">
					<dim>32</dim>
					<dim>1</dim>
					<dim>1</dim>
					<dim>1</dim>
				</port>
			</output>
		</layer>
		<layer id="129" name="__module.model.2.m.0.cv2.conv/aten::_convolution/Convolution/fq_weights_1" type="Multiply" version="opset1">
			<data auto_broadcast="numpy" />
			<input>
				<port id="0" precision="FP32">
					<dim>32</dim>
					<dim>64</dim>
					<dim>1</dim>
					<dim>1</dim>
				</port>
				<port id="1" precision="FP32">
					<dim>32</dim>
					<dim>1</dim>
					<dim>1</dim>
					<dim>1</dim>
				</port>
			</input>
			<output>
				<port id="2" precision="FP32">
					<dim>32</dim>
					<dim>64</dim>
					<dim>1</dim>
					<dim>1</dim>
				</port>
			</output>
		</layer>
		<layer id="130" name="__module.model.2.m.0.cv2.conv/aten::_convolution/Convolution" type="Convolution" version="opset1">
			<data strides="1, 1" dilations="1, 1" pads_begin="0, 0" pads_end="0, 0" auto_pad="explicit" />
			<input>
				<port id="0" precision="FP32">
					<dim>1</dim>
					<dim>64</dim>
					<dim>120</dim>
					<dim>120</dim>
				</port>
				<port id="1" precision="FP32">
					<dim>32</dim>
					<dim>64</dim>
					<dim>1</dim>
					<dim>1</dim>
				</port>
			</input>
			<output>
				<port id="2" precision="FP32">
					<dim>1</dim>
					<dim>32</dim>
					<dim>120</dim>
					<dim>120</dim>
				</port>
			</output>
		</layer>
		<layer id="131" name="__module.model.2.m.0.cv2.conv/aten::_convolution/Reshape" type="Const" version="opset1">
			<data element_type="f32" shape="1, 32, 1, 1" offset="174672" size="128" />
			<output>
				<port id="0" precision="FP32">
					<dim>1</dim>
					<dim>32</dim>
					<dim>1</dim>
					<dim>1</dim>
				</port>
			</output>
		</layer>
		<layer id="132" name="__module.model.2.m.0.cv2.conv/aten::_convolution/Add" type="Add" version="opset1">
			<data auto_broadcast="numpy" />
			<input>
				<port id="0" precision="FP32">
					<dim>1</dim>
					<dim>32</dim>
					<dim>120</dim>
					<dim>120</dim>
				</port>
				<port id="1" precision="FP32">
					<dim>1</dim>
					<dim>32</dim>
					<dim>1</dim>
					<dim>1</dim>
				</port>
			</input>
			<output>
				<port id="2" precision="FP32" names="195_1">
					<dim>1</dim>
					<dim>32</dim>
					<dim>120</dim>
					<dim>120</dim>
				</port>
			</output>
		</layer>
		<layer id="133" name="__module.model.23.cv3.2.1.1.act/aten::silu_/Swish_8" type="Swish" version="opset4">
			<input>
				<port id="0" precision="FP32">
					<dim>1</dim>
					<dim>32</dim>
					<dim>120</dim>
					<dim>120</dim>
				</port>
			</input>
			<output>
				<port id="1" precision="FP32" names="195,input.31">
					<dim>1</dim>
					<dim>32</dim>
					<dim>120</dim>
					<dim>120</dim>
				</port>
			</output>
		</layer>
		<layer id="134" name="__module.model.23.cv3.2.1.1.act/aten::silu_/Swish_8/fq_output_0/input_low" type="Const" version="opset1">
			<data element_type="f32" shape="" offset="172488" size="4" />
			<output>
				<port id="0" precision="FP32" />
			</output>
		</layer>
		<layer id="135" name="__module.model.23.cv3.2.1.1.act/aten::silu_/Swish_8/fq_output_0/input_high" type="Const" version="opset1">
			<data element_type="f32" shape="" offset="172492" size="4" />
			<output>
				<port id="0" precision="FP32" />
			</output>
		</layer>
		<layer id="136" name="__module.model.23.cv3.2.1.1.act/aten::silu_/Swish_8/fq_output_0/output_low" type="Const" version="opset1">
			<data element_type="f32" shape="" offset="172488" size="4" />
			<output>
				<port id="0" precision="FP32" />
			</output>
		</layer>
		<layer id="137" name="__module.model.23.cv3.2.1.1.act/aten::silu_/Swish_8/fq_output_0/output_high" type="Const" version="opset1">
			<data element_type="f32" shape="" offset="172492" size="4" />
			<output>
				<port id="0" precision="FP32" />
			</output>
		</layer>
		<layer id="138" name="__module.model.23.cv3.2.1.1.act/aten::silu_/Swish_8/fq_output_0" type="FakeQuantize" version="opset1">
			<data levels="256" auto_broadcast="numpy" />
			<input>
				<port id="0" precision="FP32">
					<dim>1</dim>
					<dim>32</dim>
					<dim>120</dim>
					<dim>120</dim>
				</port>
				<port id="1" precision="FP32" />
				<port id="2" precision="FP32" />
				<port id="3" precision="FP32" />
				<port id="4" precision="FP32" />
			</input>
			<output>
				<port id="5" precision="FP32">
					<dim>1</dim>
					<dim>32</dim>
					<dim>120</dim>
					<dim>120</dim>
				</port>
			</output>
		</layer>
		<layer id="139" name="__module.model.2.m.0/aten::cat/Concat" type="Concat" version="opset1">
			<data axis="1" />
			<input>
				<port id="0" precision="FP32">
					<dim>1</dim>
					<dim>32</dim>
					<dim>120</dim>
					<dim>120</dim>
				</port>
				<port id="1" precision="FP32">
					<dim>1</dim>
					<dim>32</dim>
					<dim>120</dim>
					<dim>120</dim>
				</port>
			</input>
			<output>
				<port id="2" precision="FP32" names="198,input.33">
					<dim>1</dim>
					<dim>64</dim>
					<dim>120</dim>
					<dim>120</dim>
				</port>
			</output>
		</layer>
		<layer id="140" name="Constant_2245408" type="Const" version="opset1">
			<data element_type="i8" shape="64, 64, 1, 1" offset="174800" size="4096" />
			<output>
				<port id="0" precision="I8">
					<dim>64</dim>
					<dim>64</dim>
					<dim>1</dim>
					<dim>1</dim>
				</port>
			</output>
		</layer>
		<layer id="141" name="Convert_2245409" type="Convert" version="opset1">
			<data destination_type="f32" />
			<input>
				<port id="0" precision="I8">
					<dim>64</dim>
					<dim>64</dim>
					<dim>1</dim>
					<dim>1</dim>
				</port>
			</input>
			<output>
				<port id="1" precision="FP32">
					<dim>64</dim>
					<dim>64</dim>
					<dim>1</dim>
					<dim>1</dim>
				</port>
			</output>
		</layer>
		<layer id="142" name="Constant_2245410" type="Const" version="opset1">
			<data element_type="f32" shape="64, 1, 1, 1" offset="178896" size="256" />
			<output>
				<port id="0" precision="FP32">
					<dim>64</dim>
					<dim>1</dim>
					<dim>1</dim>
					<dim>1</dim>
				</port>
			</output>
		</layer>
		<layer id="143" name="__module.model.2.m.0.cv3.conv/aten::_convolution/Convolution/fq_weights_1" type="Multiply" version="opset1">
			<data auto_broadcast="numpy" />
			<input>
				<port id="0" precision="FP32">
					<dim>64</dim>
					<dim>64</dim>
					<dim>1</dim>
					<dim>1</dim>
				</port>
				<port id="1" precision="FP32">
					<dim>64</dim>
					<dim>1</dim>
					<dim>1</dim>
					<dim>1</dim>
				</port>
			</input>
			<output>
				<port id="2" precision="FP32">
					<dim>64</dim>
					<dim>64</dim>
					<dim>1</dim>
					<dim>1</dim>
				</port>
			</output>
		</layer>
		<layer id="144" name="__module.model.2.m.0.cv3.conv/aten::_convolution/Convolution" type="Convolution" version="opset1">
			<data strides="1, 1" dilations="1, 1" pads_begin="0, 0" pads_end="0, 0" auto_pad="explicit" />
			<input>
				<port id="0" precision="FP32">
					<dim>1</dim>
					<dim>64</dim>
					<dim>120</dim>
					<dim>120</dim>
				</port>
				<port id="1" precision="FP32">
					<dim>64</dim>
					<dim>64</dim>
					<dim>1</dim>
					<dim>1</dim>
				</port>
			</input>
			<output>
				<port id="2" precision="FP32">
					<dim>1</dim>
					<dim>64</dim>
					<dim>120</dim>
					<dim>120</dim>
				</port>
			</output>
		</layer>
		<layer id="145" name="__module.model.2.m.0.cv3.conv/aten::_convolution/Reshape" type="Const" version="opset1">
			<data element_type="f32" shape="1, 64, 1, 1" offset="179152" size="256" />
			<output>
				<port id="0" precision="FP32">
					<dim>1</dim>
					<dim>64</dim>
					<dim>1</dim>
					<dim>1</dim>
				</port>
			</output>
		</layer>
		<layer id="146" name="__module.model.2.m.0.cv3.conv/aten::_convolution/Add" type="Add" version="opset1">
			<data auto_broadcast="numpy" />
			<input>
				<port id="0" precision="FP32">
					<dim>1</dim>
					<dim>64</dim>
					<dim>120</dim>
					<dim>120</dim>
				</port>
				<port id="1" precision="FP32">
					<dim>1</dim>
					<dim>64</dim>
					<dim>1</dim>
					<dim>1</dim>
				</port>
			</input>
			<output>
				<port id="2" precision="FP32" names="206_1">
					<dim>1</dim>
					<dim>64</dim>
					<dim>120</dim>
					<dim>120</dim>
				</port>
			</output>
		</layer>
		<layer id="147" name="__module.model.23.cv3.2.1.1.act/aten::silu_/Swish_9" type="Swish" version="opset4">
			<input>
				<port id="0" precision="FP32">
					<dim>1</dim>
					<dim>64</dim>
					<dim>120</dim>
					<dim>120</dim>
				</port>
			</input>
			<output>
				<port id="1" precision="FP32" names="206,input.35">
					<dim>1</dim>
					<dim>64</dim>
					<dim>120</dim>
					<dim>120</dim>
				</port>
			</output>
		</layer>
		<layer id="148" name="__module.model.23.cv3.2.1.1.act/aten::silu_/Swish_9/fq_output_0/input_low" type="Const" version="opset1">
			<data element_type="f32" shape="" offset="132224" size="4" />
			<output>
				<port id="0" precision="FP32" />
			</output>
		</layer>
		<layer id="149" name="__module.model.23.cv3.2.1.1.act/aten::silu_/Swish_9/fq_output_0/input_high" type="Const" version="opset1">
			<data element_type="f32" shape="" offset="132228" size="4" />
			<output>
				<port id="0" precision="FP32" />
			</output>
		</layer>
		<layer id="150" name="__module.model.23.cv3.2.1.1.act/aten::silu_/Swish_9/fq_output_0/output_low" type="Const" version="opset1">
			<data element_type="f32" shape="" offset="132224" size="4" />
			<output>
				<port id="0" precision="FP32" />
			</output>
		</layer>
		<layer id="151" name="__module.model.23.cv3.2.1.1.act/aten::silu_/Swish_9/fq_output_0/output_high" type="Const" version="opset1">
			<data element_type="f32" shape="" offset="132228" size="4" />
			<output>
				<port id="0" precision="FP32" />
			</output>
		</layer>
		<layer id="152" name="__module.model.23.cv3.2.1.1.act/aten::silu_/Swish_9/fq_output_0" type="FakeQuantize" version="opset1">
			<data levels="256" auto_broadcast="numpy" />
			<input>
				<port id="0" precision="FP32">
					<dim>1</dim>
					<dim>64</dim>
					<dim>120</dim>
					<dim>120</dim>
				</port>
				<port id="1" precision="FP32" />
				<port id="2" precision="FP32" />
				<port id="3" precision="FP32" />
				<port id="4" precision="FP32" />
			</input>
			<output>
				<port id="5" precision="FP32">
					<dim>1</dim>
					<dim>64</dim>
					<dim>120</dim>
					<dim>120</dim>
				</port>
			</output>
		</layer>
		<layer id="153" name="__module.model.2/aten::cat/Concat" type="Concat" version="opset1">
			<data axis="1" />
			<input>
				<port id="0" precision="FP32">
					<dim>1</dim>
					<dim>64</dim>
					<dim>120</dim>
					<dim>120</dim>
				</port>
				<port id="1" precision="FP32">
					<dim>1</dim>
					<dim>64</dim>
					<dim>120</dim>
					<dim>120</dim>
				</port>
				<port id="2" precision="FP32">
					<dim>1</dim>
					<dim>64</dim>
					<dim>120</dim>
					<dim>120</dim>
				</port>
			</input>
			<output>
				<port id="3" precision="FP32" names="209,input.37">
					<dim>1</dim>
					<dim>192</dim>
					<dim>120</dim>
					<dim>120</dim>
				</port>
			</output>
		</layer>
		<layer id="154" name="Constant_2245412" type="Const" version="opset1">
			<data element_type="i8" shape="256, 192, 1, 1" offset="179408" size="49152" />
			<output>
				<port id="0" precision="I8">
					<dim>256</dim>
					<dim>192</dim>
					<dim>1</dim>
					<dim>1</dim>
				</port>
			</output>
		</layer>
		<layer id="155" name="Convert_2245413" type="Convert" version="opset1">
			<data destination_type="f32" />
			<input>
				<port id="0" precision="I8">
					<dim>256</dim>
					<dim>192</dim>
					<dim>1</dim>
					<dim>1</dim>
				</port>
			</input>
			<output>
				<port id="1" precision="FP32">
					<dim>256</dim>
					<dim>192</dim>
					<dim>1</dim>
					<dim>1</dim>
				</port>
			</output>
		</layer>
		<layer id="156" name="Constant_2245414" type="Const" version="opset1">
			<data element_type="f32" shape="256, 1, 1, 1" offset="228560" size="1024" />
			<output>
				<port id="0" precision="FP32">
					<dim>256</dim>
					<dim>1</dim>
					<dim>1</dim>
					<dim>1</dim>
				</port>
			</output>
		</layer>
		<layer id="157" name="__module.model.2.cv2.conv/aten::_convolution/Convolution/fq_weights_1" type="Multiply" version="opset1">
			<data auto_broadcast="numpy" />
			<input>
				<port id="0" precision="FP32">
					<dim>256</dim>
					<dim>192</dim>
					<dim>1</dim>
					<dim>1</dim>
				</port>
				<port id="1" precision="FP32">
					<dim>256</dim>
					<dim>1</dim>
					<dim>1</dim>
					<dim>1</dim>
				</port>
			</input>
			<output>
				<port id="2" precision="FP32">
					<dim>256</dim>
					<dim>192</dim>
					<dim>1</dim>
					<dim>1</dim>
				</port>
			</output>
		</layer>
		<layer id="158" name="__module.model.2.cv2.conv/aten::_convolution/Convolution" type="Convolution" version="opset1">
			<data strides="1, 1" dilations="1, 1" pads_begin="0, 0" pads_end="0, 0" auto_pad="explicit" />
			<input>
				<port id="0" precision="FP32">
					<dim>1</dim>
					<dim>192</dim>
					<dim>120</dim>
					<dim>120</dim>
				</port>
				<port id="1" precision="FP32">
					<dim>256</dim>
					<dim>192</dim>
					<dim>1</dim>
					<dim>1</dim>
				</port>
			</input>
			<output>
				<port id="2" precision="FP32">
					<dim>1</dim>
					<dim>256</dim>
					<dim>120</dim>
					<dim>120</dim>
				</port>
			</output>
		</layer>
		<layer id="159" name="__module.model.2.cv2.conv/aten::_convolution/Reshape" type="Const" version="opset1">
			<data element_type="f32" shape="1, 256, 1, 1" offset="229584" size="1024" />
			<output>
				<port id="0" precision="FP32">
					<dim>1</dim>
					<dim>256</dim>
					<dim>1</dim>
					<dim>1</dim>
				</port>
			</output>
		</layer>
		<layer id="160" name="__module.model.2.cv2.conv/aten::_convolution/Add" type="Add" version="opset1">
			<data auto_broadcast="numpy" />
			<input>
				<port id="0" precision="FP32">
					<dim>1</dim>
					<dim>256</dim>
					<dim>120</dim>
					<dim>120</dim>
				</port>
				<port id="1" precision="FP32">
					<dim>1</dim>
					<dim>256</dim>
					<dim>1</dim>
					<dim>1</dim>
				</port>
			</input>
			<output>
				<port id="2" precision="FP32" names="217_1">
					<dim>1</dim>
					<dim>256</dim>
					<dim>120</dim>
					<dim>120</dim>
				</port>
			</output>
		</layer>
		<layer id="161" name="__module.model.23.cv3.2.1.1.act/aten::silu_/Swish_10" type="Swish" version="opset4">
			<input>
				<port id="0" precision="FP32">
					<dim>1</dim>
					<dim>256</dim>
					<dim>120</dim>
					<dim>120</dim>
				</port>
			</input>
			<output>
				<port id="1" precision="FP32" names="217,input.39">
					<dim>1</dim>
					<dim>256</dim>
					<dim>120</dim>
					<dim>120</dim>
				</port>
			</output>
		</layer>
		<layer id="162" name="__module.model.23.cv3.2.1.1.act/aten::silu_/Swish_10/fq_output_0/input_low" type="Const" version="opset1">
			<data element_type="f32" shape="" offset="230608" size="4" />
			<output>
				<port id="0" precision="FP32" />
			</output>
		</layer>
		<layer id="163" name="__module.model.23.cv3.2.1.1.act/aten::silu_/Swish_10/fq_output_0/input_high" type="Const" version="opset1">
			<data element_type="f32" shape="" offset="230612" size="4" />
			<output>
				<port id="0" precision="FP32" />
			</output>
		</layer>
		<layer id="164" name="__module.model.23.cv3.2.1.1.act/aten::silu_/Swish_10/fq_output_0/output_low" type="Const" version="opset1">
			<data element_type="f32" shape="" offset="230608" size="4" />
			<output>
				<port id="0" precision="FP32" />
			</output>
		</layer>
		<layer id="165" name="__module.model.23.cv3.2.1.1.act/aten::silu_/Swish_10/fq_output_0/output_high" type="Const" version="opset1">
			<data element_type="f32" shape="" offset="230612" size="4" />
			<output>
				<port id="0" precision="FP32" />
			</output>
		</layer>
		<layer id="166" name="__module.model.23.cv3.2.1.1.act/aten::silu_/Swish_10/fq_output_0" type="FakeQuantize" version="opset1">
			<data levels="256" auto_broadcast="numpy" />
			<input>
				<port id="0" precision="FP32">
					<dim>1</dim>
					<dim>256</dim>
					<dim>120</dim>
					<dim>120</dim>
				</port>
				<port id="1" precision="FP32" />
				<port id="2" precision="FP32" />
				<port id="3" precision="FP32" />
				<port id="4" precision="FP32" />
			</input>
			<output>
				<port id="5" precision="FP32">
					<dim>1</dim>
					<dim>256</dim>
					<dim>120</dim>
					<dim>120</dim>
				</port>
			</output>
		</layer>
		<layer id="167" name="Constant_2245416" type="Const" version="opset1">
			<data element_type="i8" shape="256, 256, 3, 3" offset="230616" size="589824" />
			<output>
				<port id="0" precision="I8">
					<dim>256</dim>
					<dim>256</dim>
					<dim>3</dim>
					<dim>3</dim>
				</port>
			</output>
		</layer>
		<layer id="168" name="Convert_2245417" type="Convert" version="opset1">
			<data destination_type="f32" />
			<input>
				<port id="0" precision="I8">
					<dim>256</dim>
					<dim>256</dim>
					<dim>3</dim>
					<dim>3</dim>
				</port>
			</input>
			<output>
				<port id="1" precision="FP32">
					<dim>256</dim>
					<dim>256</dim>
					<dim>3</dim>
					<dim>3</dim>
				</port>
			</output>
		</layer>
		<layer id="169" name="Constant_2245418" type="Const" version="opset1">
			<data element_type="f32" shape="256, 1, 1, 1" offset="820440" size="1024" />
			<output>
				<port id="0" precision="FP32">
					<dim>256</dim>
					<dim>1</dim>
					<dim>1</dim>
					<dim>1</dim>
				</port>
			</output>
		</layer>
		<layer id="170" name="__module.model.3.conv/aten::_convolution/Convolution/fq_weights_1" type="Multiply" version="opset1">
			<data auto_broadcast="numpy" />
			<input>
				<port id="0" precision="FP32">
					<dim>256</dim>
					<dim>256</dim>
					<dim>3</dim>
					<dim>3</dim>
				</port>
				<port id="1" precision="FP32">
					<dim>256</dim>
					<dim>1</dim>
					<dim>1</dim>
					<dim>1</dim>
				</port>
			</input>
			<output>
				<port id="2" precision="FP32">
					<dim>256</dim>
					<dim>256</dim>
					<dim>3</dim>
					<dim>3</dim>
				</port>
			</output>
		</layer>
		<layer id="171" name="__module.model.3.conv/aten::_convolution/Convolution" type="Convolution" version="opset1">
			<data strides="2, 2" dilations="1, 1" pads_begin="1, 1" pads_end="1, 1" auto_pad="explicit" />
			<input>
				<port id="0" precision="FP32">
					<dim>1</dim>
					<dim>256</dim>
					<dim>120</dim>
					<dim>120</dim>
				</port>
				<port id="1" precision="FP32">
					<dim>256</dim>
					<dim>256</dim>
					<dim>3</dim>
					<dim>3</dim>
				</port>
			</input>
			<output>
				<port id="2" precision="FP32">
					<dim>1</dim>
					<dim>256</dim>
					<dim>60</dim>
					<dim>60</dim>
				</port>
			</output>
		</layer>
		<layer id="172" name="__module.model.3.conv/aten::_convolution/Reshape" type="Const" version="opset1">
			<data element_type="f32" shape="1, 256, 1, 1" offset="821464" size="1024" />
			<output>
				<port id="0" precision="FP32">
					<dim>1</dim>
					<dim>256</dim>
					<dim>1</dim>
					<dim>1</dim>
				</port>
			</output>
		</layer>
		<layer id="173" name="__module.model.3.conv/aten::_convolution/Add" type="Add" version="opset1">
			<data auto_broadcast="numpy" />
			<input>
				<port id="0" precision="FP32">
					<dim>1</dim>
					<dim>256</dim>
					<dim>60</dim>
					<dim>60</dim>
				</port>
				<port id="1" precision="FP32">
					<dim>1</dim>
					<dim>256</dim>
					<dim>1</dim>
					<dim>1</dim>
				</port>
			</input>
			<output>
				<port id="2" precision="FP32" names="231_1">
					<dim>1</dim>
					<dim>256</dim>
					<dim>60</dim>
					<dim>60</dim>
				</port>
			</output>
		</layer>
		<layer id="174" name="__module.model.23.cv3.2.1.1.act/aten::silu_/Swish_11" type="Swish" version="opset4">
			<input>
				<port id="0" precision="FP32">
					<dim>1</dim>
					<dim>256</dim>
					<dim>60</dim>
					<dim>60</dim>
				</port>
			</input>
			<output>
				<port id="1" precision="FP32" names="231,input.43">
					<dim>1</dim>
					<dim>256</dim>
					<dim>60</dim>
					<dim>60</dim>
				</port>
			</output>
		</layer>
		<layer id="175" name="__module.model.23.cv3.2.1.1.act/aten::silu_/Swish_11/fq_output_0/input_low" type="Const" version="opset1">
			<data element_type="f32" shape="" offset="822488" size="4" />
			<output>
				<port id="0" precision="FP32" />
			</output>
		</layer>
		<layer id="176" name="__module.model.23.cv3.2.1.1.act/aten::silu_/Swish_11/fq_output_0/input_high" type="Const" version="opset1">
			<data element_type="f32" shape="" offset="822492" size="4" />
			<output>
				<port id="0" precision="FP32" />
			</output>
		</layer>
		<layer id="177" name="__module.model.23.cv3.2.1.1.act/aten::silu_/Swish_11/fq_output_0/output_low" type="Const" version="opset1">
			<data element_type="f32" shape="" offset="822488" size="4" />
			<output>
				<port id="0" precision="FP32" />
			</output>
		</layer>
		<layer id="178" name="__module.model.23.cv3.2.1.1.act/aten::silu_/Swish_11/fq_output_0/output_high" type="Const" version="opset1">
			<data element_type="f32" shape="" offset="822492" size="4" />
			<output>
				<port id="0" precision="FP32" />
			</output>
		</layer>
		<layer id="179" name="__module.model.23.cv3.2.1.1.act/aten::silu_/Swish_11/fq_output_0" type="FakeQuantize" version="opset1">
			<data levels="256" auto_broadcast="numpy" />
			<input>
				<port id="0" precision="FP32">
					<dim>1</dim>
					<dim>256</dim>
					<dim>60</dim>
					<dim>60</dim>
				</port>
				<port id="1" precision="FP32" />
				<port id="2" precision="FP32" />
				<port id="3" precision="FP32" />
				<port id="4" precision="FP32" />
			</input>
			<output>
				<port id="5" precision="FP32">
					<dim>1</dim>
					<dim>256</dim>
					<dim>60</dim>
					<dim>60</dim>
				</port>
			</output>
		</layer>
		<layer id="180" name="Constant_2245420" type="Const" version="opset1">
			<data element_type="i8" shape="256, 256, 1, 1" offset="822496" size="65536" />
			<output>
				<port id="0" precision="I8">
					<dim>256</dim>
					<dim>256</dim>
					<dim>1</dim>
					<dim>1</dim>
				</port>
			</output>
		</layer>
		<layer id="181" name="Convert_2245421" type="Convert" version="opset1">
			<data destination_type="f32" />
			<input>
				<port id="0" precision="I8">
					<dim>256</dim>
					<dim>256</dim>
					<dim>1</dim>
					<dim>1</dim>
				</port>
			</input>
			<output>
				<port id="1" precision="FP32">
					<dim>256</dim>
					<dim>256</dim>
					<dim>1</dim>
					<dim>1</dim>
				</port>
			</output>
		</layer>
		<layer id="182" name="Constant_2245422" type="Const" version="opset1">
			<data element_type="f32" shape="256, 1, 1, 1" offset="888032" size="1024" />
			<output>
				<port id="0" precision="FP32">
					<dim>256</dim>
					<dim>1</dim>
					<dim>1</dim>
					<dim>1</dim>
				</port>
			</output>
		</layer>
		<layer id="183" name="__module.model.4.cv1.conv/aten::_convolution/Convolution/fq_weights_1" type="Multiply" version="opset1">
			<data auto_broadcast="numpy" />
			<input>
				<port id="0" precision="FP32">
					<dim>256</dim>
					<dim>256</dim>
					<dim>1</dim>
					<dim>1</dim>
				</port>
				<port id="1" precision="FP32">
					<dim>256</dim>
					<dim>1</dim>
					<dim>1</dim>
					<dim>1</dim>
				</port>
			</input>
			<output>
				<port id="2" precision="FP32">
					<dim>256</dim>
					<dim>256</dim>
					<dim>1</dim>
					<dim>1</dim>
				</port>
			</output>
		</layer>
		<layer id="184" name="__module.model.4.cv1.conv/aten::_convolution/Convolution" type="Convolution" version="opset1">
			<data strides="1, 1" dilations="1, 1" pads_begin="0, 0" pads_end="0, 0" auto_pad="explicit" />
			<input>
				<port id="0" precision="FP32">
					<dim>1</dim>
					<dim>256</dim>
					<dim>60</dim>
					<dim>60</dim>
				</port>
				<port id="1" precision="FP32">
					<dim>256</dim>
					<dim>256</dim>
					<dim>1</dim>
					<dim>1</dim>
				</port>
			</input>
			<output>
				<port id="2" precision="FP32">
					<dim>1</dim>
					<dim>256</dim>
					<dim>60</dim>
					<dim>60</dim>
				</port>
			</output>
		</layer>
		<layer id="185" name="__module.model.4.cv1.conv/aten::_convolution/Reshape" type="Const" version="opset1">
			<data element_type="f32" shape="1, 256, 1, 1" offset="889056" size="1024" />
			<output>
				<port id="0" precision="FP32">
					<dim>1</dim>
					<dim>256</dim>
					<dim>1</dim>
					<dim>1</dim>
				</port>
			</output>
		</layer>
		<layer id="186" name="__module.model.4.cv1.conv/aten::_convolution/Add" type="Add" version="opset1">
			<data auto_broadcast="numpy" />
			<input>
				<port id="0" precision="FP32">
					<dim>1</dim>
					<dim>256</dim>
					<dim>60</dim>
					<dim>60</dim>
				</port>
				<port id="1" precision="FP32">
					<dim>1</dim>
					<dim>256</dim>
					<dim>1</dim>
					<dim>1</dim>
				</port>
			</input>
			<output>
				<port id="2" precision="FP32" names="249_1">
					<dim>1</dim>
					<dim>256</dim>
					<dim>60</dim>
					<dim>60</dim>
				</port>
			</output>
		</layer>
		<layer id="187" name="__module.model.23.cv3.2.1.1.act/aten::silu_/Swish_12" type="Swish" version="opset4">
			<input>
				<port id="0" precision="FP32">
					<dim>1</dim>
					<dim>256</dim>
					<dim>60</dim>
					<dim>60</dim>
				</port>
			</input>
			<output>
				<port id="1" precision="FP32" names="249,input.47">
					<dim>1</dim>
					<dim>256</dim>
					<dim>60</dim>
					<dim>60</dim>
				</port>
			</output>
		</layer>
		<layer id="188" name="__module.model.23.cv3.2.1.1.act/aten::silu_/Swish_12/fq_output_0/input_low" type="Const" version="opset1">
			<data element_type="f32" shape="" offset="114808" size="4" />
			<output>
				<port id="0" precision="FP32" />
			</output>
		</layer>
		<layer id="189" name="__module.model.23.cv3.2.1.1.act/aten::silu_/Swish_12/fq_output_0/input_high" type="Const" version="opset1">
			<data element_type="f32" shape="" offset="153516" size="4" />
			<output>
				<port id="0" precision="FP32" />
			</output>
		</layer>
		<layer id="190" name="__module.model.23.cv3.2.1.1.act/aten::silu_/Swish_12/fq_output_0/output_low" type="Const" version="opset1">
			<data element_type="f32" shape="" offset="114808" size="4" />
			<output>
				<port id="0" precision="FP32" />
			</output>
		</layer>
		<layer id="191" name="__module.model.23.cv3.2.1.1.act/aten::silu_/Swish_12/fq_output_0/output_high" type="Const" version="opset1">
			<data element_type="f32" shape="" offset="153516" size="4" />
			<output>
				<port id="0" precision="FP32" />
			</output>
		</layer>
		<layer id="192" name="__module.model.23.cv3.2.1.1.act/aten::silu_/Swish_12/fq_output_0" type="FakeQuantize" version="opset1">
			<data levels="256" auto_broadcast="numpy" />
			<input>
				<port id="0" precision="FP32">
					<dim>1</dim>
					<dim>256</dim>
					<dim>60</dim>
					<dim>60</dim>
				</port>
				<port id="1" precision="FP32" />
				<port id="2" precision="FP32" />
				<port id="3" precision="FP32" />
				<port id="4" precision="FP32" />
			</input>
			<output>
				<port id="5" precision="FP32">
					<dim>1</dim>
					<dim>256</dim>
					<dim>60</dim>
					<dim>60</dim>
				</port>
			</output>
		</layer>
		<layer id="193" name="237" type="Const" version="opset1">
			<data element_type="i64" shape="" offset="132232" size="8" />
			<output>
				<port id="0" precision="I64" names="237" />
			</output>
		</layer>
		<layer id="194" name="Constant_1635000" type="Const" version="opset1">
			<data element_type="i64" shape="2" offset="890080" size="16" />
			<output>
				<port id="0" precision="I64">
					<dim>2</dim>
				</port>
			</output>
		</layer>
		<layer id="195" name="__module.model.4/aten::split_with_sizes/VariadicSplit" type="VariadicSplit" version="opset1">
			<input>
				<port id="0" precision="FP32">
					<dim>1</dim>
					<dim>256</dim>
					<dim>60</dim>
					<dim>60</dim>
				</port>
				<port id="1" precision="I64" />
				<port id="2" precision="I64">
					<dim>2</dim>
				</port>
			</input>
			<output>
				<port id="3" precision="FP32" names="253">
					<dim>1</dim>
					<dim>128</dim>
					<dim>60</dim>
					<dim>60</dim>
				</port>
				<port id="4" precision="FP32" names="254,input.49">
					<dim>1</dim>
					<dim>128</dim>
					<dim>60</dim>
					<dim>60</dim>
				</port>
			</output>
		</layer>
		<layer id="196" name="Constant_2245424" type="Const" version="opset1">
			<data element_type="i8" shape="64, 128, 1, 1" offset="890096" size="8192" />
			<output>
				<port id="0" precision="I8">
					<dim>64</dim>
					<dim>128</dim>
					<dim>1</dim>
					<dim>1</dim>
				</port>
			</output>
		</layer>
		<layer id="197" name="Convert_2245425" type="Convert" version="opset1">
			<data destination_type="f32" />
			<input>
				<port id="0" precision="I8">
					<dim>64</dim>
					<dim>128</dim>
					<dim>1</dim>
					<dim>1</dim>
				</port>
			</input>
			<output>
				<port id="1" precision="FP32">
					<dim>64</dim>
					<dim>128</dim>
					<dim>1</dim>
					<dim>1</dim>
				</port>
			</output>
		</layer>
		<layer id="198" name="Constant_2245426" type="Const" version="opset1">
			<data element_type="f32" shape="64, 1, 1, 1" offset="898288" size="256" />
			<output>
				<port id="0" precision="FP32">
					<dim>64</dim>
					<dim>1</dim>
					<dim>1</dim>
					<dim>1</dim>
				</port>
			</output>
		</layer>
		<layer id="199" name="__module.model.4.m.0.cv1.conv/aten::_convolution/Convolution/fq_weights_1" type="Multiply" version="opset1">
			<data auto_broadcast="numpy" />
			<input>
				<port id="0" precision="FP32">
					<dim>64</dim>
					<dim>128</dim>
					<dim>1</dim>
					<dim>1</dim>
				</port>
				<port id="1" precision="FP32">
					<dim>64</dim>
					<dim>1</dim>
					<dim>1</dim>
					<dim>1</dim>
				</port>
			</input>
			<output>
				<port id="2" precision="FP32">
					<dim>64</dim>
					<dim>128</dim>
					<dim>1</dim>
					<dim>1</dim>
				</port>
			</output>
		</layer>
		<layer id="200" name="__module.model.4.m.0.cv1.conv/aten::_convolution/Convolution" type="Convolution" version="opset1">
			<data strides="1, 1" dilations="1, 1" pads_begin="0, 0" pads_end="0, 0" auto_pad="explicit" />
			<input>
				<port id="0" precision="FP32">
					<dim>1</dim>
					<dim>128</dim>
					<dim>60</dim>
					<dim>60</dim>
				</port>
				<port id="1" precision="FP32">
					<dim>64</dim>
					<dim>128</dim>
					<dim>1</dim>
					<dim>1</dim>
				</port>
			</input>
			<output>
				<port id="2" precision="FP32">
					<dim>1</dim>
					<dim>64</dim>
					<dim>60</dim>
					<dim>60</dim>
				</port>
			</output>
		</layer>
		<layer id="201" name="__module.model.4.m.0.cv1.conv/aten::_convolution/Reshape" type="Const" version="opset1">
			<data element_type="f32" shape="1, 64, 1, 1" offset="898544" size="256" />
			<output>
				<port id="0" precision="FP32">
					<dim>1</dim>
					<dim>64</dim>
					<dim>1</dim>
					<dim>1</dim>
				</port>
			</output>
		</layer>
		<layer id="202" name="__module.model.4.m.0.cv1.conv/aten::_convolution/Add" type="Add" version="opset1">
			<data auto_broadcast="numpy" />
			<input>
				<port id="0" precision="FP32">
					<dim>1</dim>
					<dim>64</dim>
					<dim>60</dim>
					<dim>60</dim>
				</port>
				<port id="1" precision="FP32">
					<dim>1</dim>
					<dim>64</dim>
					<dim>1</dim>
					<dim>1</dim>
				</port>
			</input>
			<output>
				<port id="2" precision="FP32" names="266_1">
					<dim>1</dim>
					<dim>64</dim>
					<dim>60</dim>
					<dim>60</dim>
				</port>
			</output>
		</layer>
		<layer id="203" name="__module.model.23.cv3.2.1.1.act/aten::silu_/Swish_13" type="Swish" version="opset4">
			<input>
				<port id="0" precision="FP32">
					<dim>1</dim>
					<dim>64</dim>
					<dim>60</dim>
					<dim>60</dim>
				</port>
			</input>
			<output>
				<port id="1" precision="FP32" names="266,input.51">
					<dim>1</dim>
					<dim>64</dim>
					<dim>60</dim>
					<dim>60</dim>
				</port>
			</output>
		</layer>
		<layer id="204" name="__module.model.23.cv3.2.1.1.act/aten::silu_/Swish_13/fq_output_0/input_low" type="Const" version="opset1">
			<data element_type="f32" shape="" offset="898800" size="4" />
			<output>
				<port id="0" precision="FP32" />
			</output>
		</layer>
		<layer id="205" name="__module.model.23.cv3.2.1.1.act/aten::silu_/Swish_13/fq_output_0/input_high" type="Const" version="opset1">
			<data element_type="f32" shape="" offset="898804" size="4" />
			<output>
				<port id="0" precision="FP32" />
			</output>
		</layer>
		<layer id="206" name="__module.model.23.cv3.2.1.1.act/aten::silu_/Swish_13/fq_output_0/output_low" type="Const" version="opset1">
			<data element_type="f32" shape="" offset="898800" size="4" />
			<output>
				<port id="0" precision="FP32" />
			</output>
		</layer>
		<layer id="207" name="__module.model.23.cv3.2.1.1.act/aten::silu_/Swish_13/fq_output_0/output_high" type="Const" version="opset1">
			<data element_type="f32" shape="" offset="898804" size="4" />
			<output>
				<port id="0" precision="FP32" />
			</output>
		</layer>
		<layer id="208" name="__module.model.23.cv3.2.1.1.act/aten::silu_/Swish_13/fq_output_0" type="FakeQuantize" version="opset1">
			<data levels="256" auto_broadcast="numpy" />
			<input>
				<port id="0" precision="FP32">
					<dim>1</dim>
					<dim>64</dim>
					<dim>60</dim>
					<dim>60</dim>
				</port>
				<port id="1" precision="FP32" />
				<port id="2" precision="FP32" />
				<port id="3" precision="FP32" />
				<port id="4" precision="FP32" />
			</input>
			<output>
				<port id="5" precision="FP32">
					<dim>1</dim>
					<dim>64</dim>
					<dim>60</dim>
					<dim>60</dim>
				</port>
			</output>
		</layer>
		<layer id="209" name="Constant_2245428" type="Const" version="opset1">
			<data element_type="i8" shape="64, 64, 3, 3" offset="898808" size="36864" />
			<output>
				<port id="0" precision="I8">
					<dim>64</dim>
					<dim>64</dim>
					<dim>3</dim>
					<dim>3</dim>
				</port>
			</output>
		</layer>
		<layer id="210" name="Convert_2245429" type="Convert" version="opset1">
			<data destination_type="f32" />
			<input>
				<port id="0" precision="I8">
					<dim>64</dim>
					<dim>64</dim>
					<dim>3</dim>
					<dim>3</dim>
				</port>
			</input>
			<output>
				<port id="1" precision="FP32">
					<dim>64</dim>
					<dim>64</dim>
					<dim>3</dim>
					<dim>3</dim>
				</port>
			</output>
		</layer>
		<layer id="211" name="Constant_2245430" type="Const" version="opset1">
			<data element_type="f32" shape="64, 1, 1, 1" offset="935672" size="256" />
			<output>
				<port id="0" precision="FP32">
					<dim>64</dim>
					<dim>1</dim>
					<dim>1</dim>
					<dim>1</dim>
				</port>
			</output>
		</layer>
		<layer id="212" name="__module.model.4.m.0.m.0.cv1.conv/aten::_convolution/Convolution/fq_weights_1" type="Multiply" version="opset1">
			<data auto_broadcast="numpy" />
			<input>
				<port id="0" precision="FP32">
					<dim>64</dim>
					<dim>64</dim>
					<dim>3</dim>
					<dim>3</dim>
				</port>
				<port id="1" precision="FP32">
					<dim>64</dim>
					<dim>1</dim>
					<dim>1</dim>
					<dim>1</dim>
				</port>
			</input>
			<output>
				<port id="2" precision="FP32">
					<dim>64</dim>
					<dim>64</dim>
					<dim>3</dim>
					<dim>3</dim>
				</port>
			</output>
		</layer>
		<layer id="213" name="__module.model.4.m.0.m.0.cv1.conv/aten::_convolution/Convolution" type="Convolution" version="opset1">
			<data strides="1, 1" dilations="1, 1" pads_begin="1, 1" pads_end="1, 1" auto_pad="explicit" />
			<input>
				<port id="0" precision="FP32">
					<dim>1</dim>
					<dim>64</dim>
					<dim>60</dim>
					<dim>60</dim>
				</port>
				<port id="1" precision="FP32">
					<dim>64</dim>
					<dim>64</dim>
					<dim>3</dim>
					<dim>3</dim>
				</port>
			</input>
			<output>
				<port id="2" precision="FP32">
					<dim>1</dim>
					<dim>64</dim>
					<dim>60</dim>
					<dim>60</dim>
				</port>
			</output>
		</layer>
		<layer id="214" name="__module.model.4.m.0.m.0.cv1.conv/aten::_convolution/Reshape" type="Const" version="opset1">
			<data element_type="f32" shape="1, 64, 1, 1" offset="935928" size="256" />
			<output>
				<port id="0" precision="FP32">
					<dim>1</dim>
					<dim>64</dim>
					<dim>1</dim>
					<dim>1</dim>
				</port>
			</output>
		</layer>
		<layer id="215" name="__module.model.4.m.0.m.0.cv1.conv/aten::_convolution/Add" type="Add" version="opset1">
			<data auto_broadcast="numpy" />
			<input>
				<port id="0" precision="FP32">
					<dim>1</dim>
					<dim>64</dim>
					<dim>60</dim>
					<dim>60</dim>
				</port>
				<port id="1" precision="FP32">
					<dim>1</dim>
					<dim>64</dim>
					<dim>1</dim>
					<dim>1</dim>
				</port>
			</input>
			<output>
				<port id="2" precision="FP32" names="279_1">
					<dim>1</dim>
					<dim>64</dim>
					<dim>60</dim>
					<dim>60</dim>
				</port>
			</output>
		</layer>
		<layer id="216" name="__module.model.23.cv3.2.1.1.act/aten::silu_/Swish_14" type="Swish" version="opset4">
			<input>
				<port id="0" precision="FP32">
					<dim>1</dim>
					<dim>64</dim>
					<dim>60</dim>
					<dim>60</dim>
				</port>
			</input>
			<output>
				<port id="1" precision="FP32" names="279,input.55">
					<dim>1</dim>
					<dim>64</dim>
					<dim>60</dim>
					<dim>60</dim>
				</port>
			</output>
		</layer>
		<layer id="217" name="__module.model.23.cv3.2.1.1.act/aten::silu_/Swish_14/fq_output_0/input_low" type="Const" version="opset1">
			<data element_type="f32" shape="" offset="936184" size="4" />
			<output>
				<port id="0" precision="FP32" />
			</output>
		</layer>
		<layer id="218" name="__module.model.23.cv3.2.1.1.act/aten::silu_/Swish_14/fq_output_0/input_high" type="Const" version="opset1">
			<data element_type="f32" shape="" offset="936188" size="4" />
			<output>
				<port id="0" precision="FP32" />
			</output>
		</layer>
		<layer id="219" name="__module.model.23.cv3.2.1.1.act/aten::silu_/Swish_14/fq_output_0/output_low" type="Const" version="opset1">
			<data element_type="f32" shape="" offset="936184" size="4" />
			<output>
				<port id="0" precision="FP32" />
			</output>
		</layer>
		<layer id="220" name="__module.model.23.cv3.2.1.1.act/aten::silu_/Swish_14/fq_output_0/output_high" type="Const" version="opset1">
			<data element_type="f32" shape="" offset="936188" size="4" />
			<output>
				<port id="0" precision="FP32" />
			</output>
		</layer>
		<layer id="221" name="__module.model.23.cv3.2.1.1.act/aten::silu_/Swish_14/fq_output_0" type="FakeQuantize" version="opset1">
			<data levels="256" auto_broadcast="numpy" />
			<input>
				<port id="0" precision="FP32">
					<dim>1</dim>
					<dim>64</dim>
					<dim>60</dim>
					<dim>60</dim>
				</port>
				<port id="1" precision="FP32" />
				<port id="2" precision="FP32" />
				<port id="3" precision="FP32" />
				<port id="4" precision="FP32" />
			</input>
			<output>
				<port id="5" precision="FP32">
					<dim>1</dim>
					<dim>64</dim>
					<dim>60</dim>
					<dim>60</dim>
				</port>
			</output>
		</layer>
		<layer id="222" name="Constant_2245432" type="Const" version="opset1">
			<data element_type="i8" shape="64, 64, 3, 3" offset="936192" size="36864" />
			<output>
				<port id="0" precision="I8">
					<dim>64</dim>
					<dim>64</dim>
					<dim>3</dim>
					<dim>3</dim>
				</port>
			</output>
		</layer>
		<layer id="223" name="Convert_2245433" type="Convert" version="opset1">
			<data destination_type="f32" />
			<input>
				<port id="0" precision="I8">
					<dim>64</dim>
					<dim>64</dim>
					<dim>3</dim>
					<dim>3</dim>
				</port>
			</input>
			<output>
				<port id="1" precision="FP32">
					<dim>64</dim>
					<dim>64</dim>
					<dim>3</dim>
					<dim>3</dim>
				</port>
			</output>
		</layer>
		<layer id="224" name="Constant_2245434" type="Const" version="opset1">
			<data element_type="f32" shape="64, 1, 1, 1" offset="973056" size="256" />
			<output>
				<port id="0" precision="FP32">
					<dim>64</dim>
					<dim>1</dim>
					<dim>1</dim>
					<dim>1</dim>
				</port>
			</output>
		</layer>
		<layer id="225" name="__module.model.4.m.0.m.0.cv2.conv/aten::_convolution/Convolution/fq_weights_1" type="Multiply" version="opset1">
			<data auto_broadcast="numpy" />
			<input>
				<port id="0" precision="FP32">
					<dim>64</dim>
					<dim>64</dim>
					<dim>3</dim>
					<dim>3</dim>
				</port>
				<port id="1" precision="FP32">
					<dim>64</dim>
					<dim>1</dim>
					<dim>1</dim>
					<dim>1</dim>
				</port>
			</input>
			<output>
				<port id="2" precision="FP32">
					<dim>64</dim>
					<dim>64</dim>
					<dim>3</dim>
					<dim>3</dim>
				</port>
			</output>
		</layer>
		<layer id="226" name="__module.model.4.m.0.m.0.cv2.conv/aten::_convolution/Convolution" type="Convolution" version="opset1">
			<data strides="1, 1" dilations="1, 1" pads_begin="1, 1" pads_end="1, 1" auto_pad="explicit" />
			<input>
				<port id="0" precision="FP32">
					<dim>1</dim>
					<dim>64</dim>
					<dim>60</dim>
					<dim>60</dim>
				</port>
				<port id="1" precision="FP32">
					<dim>64</dim>
					<dim>64</dim>
					<dim>3</dim>
					<dim>3</dim>
				</port>
			</input>
			<output>
				<port id="2" precision="FP32">
					<dim>1</dim>
					<dim>64</dim>
					<dim>60</dim>
					<dim>60</dim>
				</port>
			</output>
		</layer>
		<layer id="227" name="__module.model.4.m.0.m.0.cv2.conv/aten::_convolution/Reshape" type="Const" version="opset1">
			<data element_type="f32" shape="1, 64, 1, 1" offset="973312" size="256" />
			<output>
				<port id="0" precision="FP32">
					<dim>1</dim>
					<dim>64</dim>
					<dim>1</dim>
					<dim>1</dim>
				</port>
			</output>
		</layer>
		<layer id="228" name="__module.model.4.m.0.m.0.cv2.conv/aten::_convolution/Add" type="Add" version="opset1">
			<data auto_broadcast="numpy" />
			<input>
				<port id="0" precision="FP32">
					<dim>1</dim>
					<dim>64</dim>
					<dim>60</dim>
					<dim>60</dim>
				</port>
				<port id="1" precision="FP32">
					<dim>1</dim>
					<dim>64</dim>
					<dim>1</dim>
					<dim>1</dim>
				</port>
			</input>
			<output>
				<port id="2" precision="FP32" names="288_1">
					<dim>1</dim>
					<dim>64</dim>
					<dim>60</dim>
					<dim>60</dim>
				</port>
			</output>
		</layer>
		<layer id="229" name="__module.model.23.cv3.2.1.1.act/aten::silu_/Swish_15" type="Swish" version="opset4">
			<input>
				<port id="0" precision="FP32">
					<dim>1</dim>
					<dim>64</dim>
					<dim>60</dim>
					<dim>60</dim>
				</port>
			</input>
			<output>
				<port id="1" precision="FP32" names="288,input.59">
					<dim>1</dim>
					<dim>64</dim>
					<dim>60</dim>
					<dim>60</dim>
				</port>
			</output>
		</layer>
		<layer id="230" name="__module.model.23.cv3.2.1.1.act/aten::silu_/Swish_15/fq_output_0/input_low" type="Const" version="opset1">
			<data element_type="f32" shape="" offset="114808" size="4" />
			<output>
				<port id="0" precision="FP32" />
			</output>
		</layer>
		<layer id="231" name="__module.model.23.cv3.2.1.1.act/aten::silu_/Swish_15/fq_output_0/input_high" type="Const" version="opset1">
			<data element_type="f32" shape="" offset="134560" size="4" />
			<output>
				<port id="0" precision="FP32" />
			</output>
		</layer>
		<layer id="232" name="__module.model.23.cv3.2.1.1.act/aten::silu_/Swish_15/fq_output_0/output_low" type="Const" version="opset1">
			<data element_type="f32" shape="" offset="114808" size="4" />
			<output>
				<port id="0" precision="FP32" />
			</output>
		</layer>
		<layer id="233" name="__module.model.23.cv3.2.1.1.act/aten::silu_/Swish_15/fq_output_0/output_high" type="Const" version="opset1">
			<data element_type="f32" shape="" offset="134560" size="4" />
			<output>
				<port id="0" precision="FP32" />
			</output>
		</layer>
		<layer id="234" name="__module.model.23.cv3.2.1.1.act/aten::silu_/Swish_15/fq_output_0" type="FakeQuantize" version="opset1">
			<data levels="256" auto_broadcast="numpy" />
			<input>
				<port id="0" precision="FP32">
					<dim>1</dim>
					<dim>64</dim>
					<dim>60</dim>
					<dim>60</dim>
				</port>
				<port id="1" precision="FP32" />
				<port id="2" precision="FP32" />
				<port id="3" precision="FP32" />
				<port id="4" precision="FP32" />
			</input>
			<output>
				<port id="5" precision="FP32">
					<dim>1</dim>
					<dim>64</dim>
					<dim>60</dim>
					<dim>60</dim>
				</port>
			</output>
		</layer>
		<layer id="235" name="__module.model.4.m.0.m.0/aten::add/Add" type="Add" version="opset1">
			<data auto_broadcast="numpy" />
			<input>
				<port id="0" precision="FP32">
					<dim>1</dim>
					<dim>64</dim>
					<dim>60</dim>
					<dim>60</dim>
				</port>
				<port id="1" precision="FP32">
					<dim>1</dim>
					<dim>64</dim>
					<dim>60</dim>
					<dim>60</dim>
				</port>
			</input>
			<output>
				<port id="2" precision="FP32" names="290,input.61">
					<dim>1</dim>
					<dim>64</dim>
					<dim>60</dim>
					<dim>60</dim>
				</port>
			</output>
		</layer>
		<layer id="236" name="__module.model.4.m.0.m.0/aten::add/Add/fq_output_0/input_low" type="Const" version="opset1">
			<data element_type="f32" shape="" offset="973568" size="4" />
			<output>
				<port id="0" precision="FP32" />
			</output>
		</layer>
		<layer id="237" name="__module.model.4.m.0.m.0/aten::add/Add/fq_output_0/input_high" type="Const" version="opset1">
			<data element_type="f32" shape="" offset="973572" size="4" />
			<output>
				<port id="0" precision="FP32" />
			</output>
		</layer>
		<layer id="238" name="__module.model.4.m.0.m.0/aten::add/Add/fq_output_0/output_low" type="Const" version="opset1">
			<data element_type="f32" shape="" offset="973568" size="4" />
			<output>
				<port id="0" precision="FP32" />
			</output>
		</layer>
		<layer id="239" name="__module.model.4.m.0.m.0/aten::add/Add/fq_output_0/output_high" type="Const" version="opset1">
			<data element_type="f32" shape="" offset="973572" size="4" />
			<output>
				<port id="0" precision="FP32" />
			</output>
		</layer>
		<layer id="240" name="__module.model.4.m.0.m.0/aten::add/Add/fq_output_0" type="FakeQuantize" version="opset1">
			<data levels="256" auto_broadcast="numpy" />
			<input>
				<port id="0" precision="FP32">
					<dim>1</dim>
					<dim>64</dim>
					<dim>60</dim>
					<dim>60</dim>
				</port>
				<port id="1" precision="FP32" />
				<port id="2" precision="FP32" />
				<port id="3" precision="FP32" />
				<port id="4" precision="FP32" />
			</input>
			<output>
				<port id="5" precision="FP32">
					<dim>1</dim>
					<dim>64</dim>
					<dim>60</dim>
					<dim>60</dim>
				</port>
			</output>
		</layer>
		<layer id="241" name="Constant_2245436" type="Const" version="opset1">
			<data element_type="i8" shape="64, 64, 3, 3" offset="973576" size="36864" />
			<output>
				<port id="0" precision="I8">
					<dim>64</dim>
					<dim>64</dim>
					<dim>3</dim>
					<dim>3</dim>
				</port>
			</output>
		</layer>
		<layer id="242" name="Convert_2245437" type="Convert" version="opset1">
			<data destination_type="f32" />
			<input>
				<port id="0" precision="I8">
					<dim>64</dim>
					<dim>64</dim>
					<dim>3</dim>
					<dim>3</dim>
				</port>
			</input>
			<output>
				<port id="1" precision="FP32">
					<dim>64</dim>
					<dim>64</dim>
					<dim>3</dim>
					<dim>3</dim>
				</port>
			</output>
		</layer>
		<layer id="243" name="Constant_2245438" type="Const" version="opset1">
			<data element_type="f32" shape="64, 1, 1, 1" offset="1010440" size="256" />
			<output>
				<port id="0" precision="FP32">
					<dim>64</dim>
					<dim>1</dim>
					<dim>1</dim>
					<dim>1</dim>
				</port>
			</output>
		</layer>
		<layer id="244" name="__module.model.4.m.0.m.1.cv1.conv/aten::_convolution/Convolution/fq_weights_1" type="Multiply" version="opset1">
			<data auto_broadcast="numpy" />
			<input>
				<port id="0" precision="FP32">
					<dim>64</dim>
					<dim>64</dim>
					<dim>3</dim>
					<dim>3</dim>
				</port>
				<port id="1" precision="FP32">
					<dim>64</dim>
					<dim>1</dim>
					<dim>1</dim>
					<dim>1</dim>
				</port>
			</input>
			<output>
				<port id="2" precision="FP32">
					<dim>64</dim>
					<dim>64</dim>
					<dim>3</dim>
					<dim>3</dim>
				</port>
			</output>
		</layer>
		<layer id="245" name="__module.model.4.m.0.m.1.cv1.conv/aten::_convolution/Convolution" type="Convolution" version="opset1">
			<data strides="1, 1" dilations="1, 1" pads_begin="1, 1" pads_end="1, 1" auto_pad="explicit" />
			<input>
				<port id="0" precision="FP32">
					<dim>1</dim>
					<dim>64</dim>
					<dim>60</dim>
					<dim>60</dim>
				</port>
				<port id="1" precision="FP32">
					<dim>64</dim>
					<dim>64</dim>
					<dim>3</dim>
					<dim>3</dim>
				</port>
			</input>
			<output>
				<port id="2" precision="FP32">
					<dim>1</dim>
					<dim>64</dim>
					<dim>60</dim>
					<dim>60</dim>
				</port>
			</output>
		</layer>
		<layer id="246" name="__module.model.4.m.0.m.1.cv1.conv/aten::_convolution/Reshape" type="Const" version="opset1">
			<data element_type="f32" shape="1, 64, 1, 1" offset="1010696" size="256" />
			<output>
				<port id="0" precision="FP32">
					<dim>1</dim>
					<dim>64</dim>
					<dim>1</dim>
					<dim>1</dim>
				</port>
			</output>
		</layer>
		<layer id="247" name="__module.model.4.m.0.m.1.cv1.conv/aten::_convolution/Add" type="Add" version="opset1">
			<data auto_broadcast="numpy" />
			<input>
				<port id="0" precision="FP32">
					<dim>1</dim>
					<dim>64</dim>
					<dim>60</dim>
					<dim>60</dim>
				</port>
				<port id="1" precision="FP32">
					<dim>1</dim>
					<dim>64</dim>
					<dim>1</dim>
					<dim>1</dim>
				</port>
			</input>
			<output>
				<port id="2" precision="FP32" names="300_1">
					<dim>1</dim>
					<dim>64</dim>
					<dim>60</dim>
					<dim>60</dim>
				</port>
			</output>
		</layer>
		<layer id="248" name="__module.model.23.cv3.2.1.1.act/aten::silu_/Swish_16" type="Swish" version="opset4">
			<input>
				<port id="0" precision="FP32">
					<dim>1</dim>
					<dim>64</dim>
					<dim>60</dim>
					<dim>60</dim>
				</port>
			</input>
			<output>
				<port id="1" precision="FP32" names="300,input.63">
					<dim>1</dim>
					<dim>64</dim>
					<dim>60</dim>
					<dim>60</dim>
				</port>
			</output>
		</layer>
		<layer id="249" name="__module.model.23.cv3.2.1.1.act/aten::silu_/Swish_16/fq_output_0/input_low" type="Const" version="opset1">
			<data element_type="f32" shape="" offset="114808" size="4" />
			<output>
				<port id="0" precision="FP32" />
			</output>
		</layer>
		<layer id="250" name="__module.model.23.cv3.2.1.1.act/aten::silu_/Swish_16/fq_output_0/input_high" type="Const" version="opset1">
			<data element_type="f32" shape="" offset="1010952" size="4" />
			<output>
				<port id="0" precision="FP32" />
			</output>
		</layer>
		<layer id="251" name="__module.model.23.cv3.2.1.1.act/aten::silu_/Swish_16/fq_output_0/output_low" type="Const" version="opset1">
			<data element_type="f32" shape="" offset="114808" size="4" />
			<output>
				<port id="0" precision="FP32" />
			</output>
		</layer>
		<layer id="252" name="__module.model.23.cv3.2.1.1.act/aten::silu_/Swish_16/fq_output_0/output_high" type="Const" version="opset1">
			<data element_type="f32" shape="" offset="1010952" size="4" />
			<output>
				<port id="0" precision="FP32" />
			</output>
		</layer>
		<layer id="253" name="__module.model.23.cv3.2.1.1.act/aten::silu_/Swish_16/fq_output_0" type="FakeQuantize" version="opset1">
			<data levels="256" auto_broadcast="numpy" />
			<input>
				<port id="0" precision="FP32">
					<dim>1</dim>
					<dim>64</dim>
					<dim>60</dim>
					<dim>60</dim>
				</port>
				<port id="1" precision="FP32" />
				<port id="2" precision="FP32" />
				<port id="3" precision="FP32" />
				<port id="4" precision="FP32" />
			</input>
			<output>
				<port id="5" precision="FP32">
					<dim>1</dim>
					<dim>64</dim>
					<dim>60</dim>
					<dim>60</dim>
				</port>
			</output>
		</layer>
		<layer id="254" name="Constant_2245440" type="Const" version="opset1">
			<data element_type="i8" shape="64, 64, 3, 3" offset="1010956" size="36864" />
			<output>
				<port id="0" precision="I8">
					<dim>64</dim>
					<dim>64</dim>
					<dim>3</dim>
					<dim>3</dim>
				</port>
			</output>
		</layer>
		<layer id="255" name="Convert_2245441" type="Convert" version="opset1">
			<data destination_type="f32" />
			<input>
				<port id="0" precision="I8">
					<dim>64</dim>
					<dim>64</dim>
					<dim>3</dim>
					<dim>3</dim>
				</port>
			</input>
			<output>
				<port id="1" precision="FP32">
					<dim>64</dim>
					<dim>64</dim>
					<dim>3</dim>
					<dim>3</dim>
				</port>
			</output>
		</layer>
		<layer id="256" name="Constant_2245442" type="Const" version="opset1">
			<data element_type="f32" shape="64, 1, 1, 1" offset="1047820" size="256" />
			<output>
				<port id="0" precision="FP32">
					<dim>64</dim>
					<dim>1</dim>
					<dim>1</dim>
					<dim>1</dim>
				</port>
			</output>
		</layer>
		<layer id="257" name="__module.model.4.m.0.m.1.cv2.conv/aten::_convolution/Convolution/fq_weights_1" type="Multiply" version="opset1">
			<data auto_broadcast="numpy" />
			<input>
				<port id="0" precision="FP32">
					<dim>64</dim>
					<dim>64</dim>
					<dim>3</dim>
					<dim>3</dim>
				</port>
				<port id="1" precision="FP32">
					<dim>64</dim>
					<dim>1</dim>
					<dim>1</dim>
					<dim>1</dim>
				</port>
			</input>
			<output>
				<port id="2" precision="FP32">
					<dim>64</dim>
					<dim>64</dim>
					<dim>3</dim>
					<dim>3</dim>
				</port>
			</output>
		</layer>
		<layer id="258" name="__module.model.4.m.0.m.1.cv2.conv/aten::_convolution/Convolution" type="Convolution" version="opset1">
			<data strides="1, 1" dilations="1, 1" pads_begin="1, 1" pads_end="1, 1" auto_pad="explicit" />
			<input>
				<port id="0" precision="FP32">
					<dim>1</dim>
					<dim>64</dim>
					<dim>60</dim>
					<dim>60</dim>
				</port>
				<port id="1" precision="FP32">
					<dim>64</dim>
					<dim>64</dim>
					<dim>3</dim>
					<dim>3</dim>
				</port>
			</input>
			<output>
				<port id="2" precision="FP32">
					<dim>1</dim>
					<dim>64</dim>
					<dim>60</dim>
					<dim>60</dim>
				</port>
			</output>
		</layer>
		<layer id="259" name="__module.model.4.m.0.m.1.cv2.conv/aten::_convolution/Reshape" type="Const" version="opset1">
			<data element_type="f32" shape="1, 64, 1, 1" offset="1048076" size="256" />
			<output>
				<port id="0" precision="FP32">
					<dim>1</dim>
					<dim>64</dim>
					<dim>1</dim>
					<dim>1</dim>
				</port>
			</output>
		</layer>
		<layer id="260" name="__module.model.4.m.0.m.1.cv2.conv/aten::_convolution/Add" type="Add" version="opset1">
			<data auto_broadcast="numpy" />
			<input>
				<port id="0" precision="FP32">
					<dim>1</dim>
					<dim>64</dim>
					<dim>60</dim>
					<dim>60</dim>
				</port>
				<port id="1" precision="FP32">
					<dim>1</dim>
					<dim>64</dim>
					<dim>1</dim>
					<dim>1</dim>
				</port>
			</input>
			<output>
				<port id="2" precision="FP32" names="309_1">
					<dim>1</dim>
					<dim>64</dim>
					<dim>60</dim>
					<dim>60</dim>
				</port>
			</output>
		</layer>
		<layer id="261" name="__module.model.23.cv3.2.1.1.act/aten::silu_/Swish_17" type="Swish" version="opset4">
			<input>
				<port id="0" precision="FP32">
					<dim>1</dim>
					<dim>64</dim>
					<dim>60</dim>
					<dim>60</dim>
				</port>
			</input>
			<output>
				<port id="1" precision="FP32" names="309,input.67">
					<dim>1</dim>
					<dim>64</dim>
					<dim>60</dim>
					<dim>60</dim>
				</port>
			</output>
		</layer>
		<layer id="262" name="__module.model.23.cv3.2.1.1.act/aten::silu_/Swish_17/fq_output_0/input_low" type="Const" version="opset1">
			<data element_type="f32" shape="" offset="1048332" size="4" />
			<output>
				<port id="0" precision="FP32" />
			</output>
		</layer>
		<layer id="263" name="__module.model.23.cv3.2.1.1.act/aten::silu_/Swish_17/fq_output_0/input_high" type="Const" version="opset1">
			<data element_type="f32" shape="" offset="1048336" size="4" />
			<output>
				<port id="0" precision="FP32" />
			</output>
		</layer>
		<layer id="264" name="__module.model.23.cv3.2.1.1.act/aten::silu_/Swish_17/fq_output_0/output_low" type="Const" version="opset1">
			<data element_type="f32" shape="" offset="1048332" size="4" />
			<output>
				<port id="0" precision="FP32" />
			</output>
		</layer>
		<layer id="265" name="__module.model.23.cv3.2.1.1.act/aten::silu_/Swish_17/fq_output_0/output_high" type="Const" version="opset1">
			<data element_type="f32" shape="" offset="1048336" size="4" />
			<output>
				<port id="0" precision="FP32" />
			</output>
		</layer>
		<layer id="266" name="__module.model.23.cv3.2.1.1.act/aten::silu_/Swish_17/fq_output_0" type="FakeQuantize" version="opset1">
			<data levels="256" auto_broadcast="numpy" />
			<input>
				<port id="0" precision="FP32">
					<dim>1</dim>
					<dim>64</dim>
					<dim>60</dim>
					<dim>60</dim>
				</port>
				<port id="1" precision="FP32" />
				<port id="2" precision="FP32" />
				<port id="3" precision="FP32" />
				<port id="4" precision="FP32" />
			</input>
			<output>
				<port id="5" precision="FP32">
					<dim>1</dim>
					<dim>64</dim>
					<dim>60</dim>
					<dim>60</dim>
				</port>
			</output>
		</layer>
		<layer id="267" name="__module.model.4.m.0.m.1/aten::add/Add" type="Add" version="opset1">
			<data auto_broadcast="numpy" />
			<input>
				<port id="0" precision="FP32">
					<dim>1</dim>
					<dim>64</dim>
					<dim>60</dim>
					<dim>60</dim>
				</port>
				<port id="1" precision="FP32">
					<dim>1</dim>
					<dim>64</dim>
					<dim>60</dim>
					<dim>60</dim>
				</port>
			</input>
			<output>
				<port id="2" precision="FP32" names="311">
					<dim>1</dim>
					<dim>64</dim>
					<dim>60</dim>
					<dim>60</dim>
				</port>
			</output>
		</layer>
		<layer id="268" name="__module.model.4.m.0.m.1/aten::add/Add/fq_output_0/input_low" type="Const" version="opset1">
			<data element_type="f32" shape="" offset="1048340" size="4" />
			<output>
				<port id="0" precision="FP32" />
			</output>
		</layer>
		<layer id="269" name="__module.model.4.m.0.m.1/aten::add/Add/fq_output_0/input_high" type="Const" version="opset1">
			<data element_type="f32" shape="" offset="1048344" size="4" />
			<output>
				<port id="0" precision="FP32" />
			</output>
		</layer>
		<layer id="270" name="__module.model.4.m.0.m.1/aten::add/Add/fq_output_0/output_low" type="Const" version="opset1">
			<data element_type="f32" shape="" offset="1048340" size="4" />
			<output>
				<port id="0" precision="FP32" />
			</output>
		</layer>
		<layer id="271" name="__module.model.4.m.0.m.1/aten::add/Add/fq_output_0/output_high" type="Const" version="opset1">
			<data element_type="f32" shape="" offset="1048344" size="4" />
			<output>
				<port id="0" precision="FP32" />
			</output>
		</layer>
		<layer id="272" name="__module.model.4.m.0.m.1/aten::add/Add/fq_output_0" type="FakeQuantize" version="opset1">
			<data levels="256" auto_broadcast="numpy" />
			<input>
				<port id="0" precision="FP32">
					<dim>1</dim>
					<dim>64</dim>
					<dim>60</dim>
					<dim>60</dim>
				</port>
				<port id="1" precision="FP32" />
				<port id="2" precision="FP32" />
				<port id="3" precision="FP32" />
				<port id="4" precision="FP32" />
			</input>
			<output>
				<port id="5" precision="FP32">
					<dim>1</dim>
					<dim>64</dim>
					<dim>60</dim>
					<dim>60</dim>
				</port>
			</output>
		</layer>
		<layer id="273" name="Constant_2245444" type="Const" version="opset1">
			<data element_type="i8" shape="64, 128, 1, 1" offset="1048348" size="8192" />
			<output>
				<port id="0" precision="I8">
					<dim>64</dim>
					<dim>128</dim>
					<dim>1</dim>
					<dim>1</dim>
				</port>
			</output>
		</layer>
		<layer id="274" name="Convert_2245445" type="Convert" version="opset1">
			<data destination_type="f32" />
			<input>
				<port id="0" precision="I8">
					<dim>64</dim>
					<dim>128</dim>
					<dim>1</dim>
					<dim>1</dim>
				</port>
			</input>
			<output>
				<port id="1" precision="FP32">
					<dim>64</dim>
					<dim>128</dim>
					<dim>1</dim>
					<dim>1</dim>
				</port>
			</output>
		</layer>
		<layer id="275" name="Constant_2245446" type="Const" version="opset1">
			<data element_type="f32" shape="64, 1, 1, 1" offset="1056540" size="256" />
			<output>
				<port id="0" precision="FP32">
					<dim>64</dim>
					<dim>1</dim>
					<dim>1</dim>
					<dim>1</dim>
				</port>
			</output>
		</layer>
		<layer id="276" name="__module.model.4.m.0.cv2.conv/aten::_convolution/Convolution/fq_weights_1" type="Multiply" version="opset1">
			<data auto_broadcast="numpy" />
			<input>
				<port id="0" precision="FP32">
					<dim>64</dim>
					<dim>128</dim>
					<dim>1</dim>
					<dim>1</dim>
				</port>
				<port id="1" precision="FP32">
					<dim>64</dim>
					<dim>1</dim>
					<dim>1</dim>
					<dim>1</dim>
				</port>
			</input>
			<output>
				<port id="2" precision="FP32">
					<dim>64</dim>
					<dim>128</dim>
					<dim>1</dim>
					<dim>1</dim>
				</port>
			</output>
		</layer>
		<layer id="277" name="__module.model.4.m.0.cv2.conv/aten::_convolution/Convolution" type="Convolution" version="opset1">
			<data strides="1, 1" dilations="1, 1" pads_begin="0, 0" pads_end="0, 0" auto_pad="explicit" />
			<input>
				<port id="0" precision="FP32">
					<dim>1</dim>
					<dim>128</dim>
					<dim>60</dim>
					<dim>60</dim>
				</port>
				<port id="1" precision="FP32">
					<dim>64</dim>
					<dim>128</dim>
					<dim>1</dim>
					<dim>1</dim>
				</port>
			</input>
			<output>
				<port id="2" precision="FP32">
					<dim>1</dim>
					<dim>64</dim>
					<dim>60</dim>
					<dim>60</dim>
				</port>
			</output>
		</layer>
		<layer id="278" name="__module.model.4.m.0.cv2.conv/aten::_convolution/Reshape" type="Const" version="opset1">
			<data element_type="f32" shape="1, 64, 1, 1" offset="1056796" size="256" />
			<output>
				<port id="0" precision="FP32">
					<dim>1</dim>
					<dim>64</dim>
					<dim>1</dim>
					<dim>1</dim>
				</port>
			</output>
		</layer>
		<layer id="279" name="__module.model.4.m.0.cv2.conv/aten::_convolution/Add" type="Add" version="opset1">
			<data auto_broadcast="numpy" />
			<input>
				<port id="0" precision="FP32">
					<dim>1</dim>
					<dim>64</dim>
					<dim>60</dim>
					<dim>60</dim>
				</port>
				<port id="1" precision="FP32">
					<dim>1</dim>
					<dim>64</dim>
					<dim>1</dim>
					<dim>1</dim>
				</port>
			</input>
			<output>
				<port id="2" precision="FP32" names="319_1">
					<dim>1</dim>
					<dim>64</dim>
					<dim>60</dim>
					<dim>60</dim>
				</port>
			</output>
		</layer>
		<layer id="280" name="__module.model.23.cv3.2.1.1.act/aten::silu_/Swish_18" type="Swish" version="opset4">
			<input>
				<port id="0" precision="FP32">
					<dim>1</dim>
					<dim>64</dim>
					<dim>60</dim>
					<dim>60</dim>
				</port>
			</input>
			<output>
				<port id="1" precision="FP32" names="319,input.69">
					<dim>1</dim>
					<dim>64</dim>
					<dim>60</dim>
					<dim>60</dim>
				</port>
			</output>
		</layer>
		<layer id="281" name="__module.model.23.cv3.2.1.1.act/aten::silu_/Swish_18/fq_output_0/input_low" type="Const" version="opset1">
			<data element_type="f32" shape="" offset="1048340" size="4" />
			<output>
				<port id="0" precision="FP32" />
			</output>
		</layer>
		<layer id="282" name="__module.model.23.cv3.2.1.1.act/aten::silu_/Swish_18/fq_output_0/input_high" type="Const" version="opset1">
			<data element_type="f32" shape="" offset="1048344" size="4" />
			<output>
				<port id="0" precision="FP32" />
			</output>
		</layer>
		<layer id="283" name="__module.model.23.cv3.2.1.1.act/aten::silu_/Swish_18/fq_output_0/output_low" type="Const" version="opset1">
			<data element_type="f32" shape="" offset="1048340" size="4" />
			<output>
				<port id="0" precision="FP32" />
			</output>
		</layer>
		<layer id="284" name="__module.model.23.cv3.2.1.1.act/aten::silu_/Swish_18/fq_output_0/output_high" type="Const" version="opset1">
			<data element_type="f32" shape="" offset="1048344" size="4" />
			<output>
				<port id="0" precision="FP32" />
			</output>
		</layer>
		<layer id="285" name="__module.model.23.cv3.2.1.1.act/aten::silu_/Swish_18/fq_output_0" type="FakeQuantize" version="opset1">
			<data levels="256" auto_broadcast="numpy" />
			<input>
				<port id="0" precision="FP32">
					<dim>1</dim>
					<dim>64</dim>
					<dim>60</dim>
					<dim>60</dim>
				</port>
				<port id="1" precision="FP32" />
				<port id="2" precision="FP32" />
				<port id="3" precision="FP32" />
				<port id="4" precision="FP32" />
			</input>
			<output>
				<port id="5" precision="FP32">
					<dim>1</dim>
					<dim>64</dim>
					<dim>60</dim>
					<dim>60</dim>
				</port>
			</output>
		</layer>
		<layer id="286" name="__module.model.4.m.0/aten::cat/Concat" type="Concat" version="opset1">
			<data axis="1" />
			<input>
				<port id="0" precision="FP32">
					<dim>1</dim>
					<dim>64</dim>
					<dim>60</dim>
					<dim>60</dim>
				</port>
				<port id="1" precision="FP32">
					<dim>1</dim>
					<dim>64</dim>
					<dim>60</dim>
					<dim>60</dim>
				</port>
			</input>
			<output>
				<port id="2" precision="FP32" names="322,input.71">
					<dim>1</dim>
					<dim>128</dim>
					<dim>60</dim>
					<dim>60</dim>
				</port>
			</output>
		</layer>
		<layer id="287" name="Constant_2245448" type="Const" version="opset1">
			<data element_type="i8" shape="128, 128, 1, 1" offset="1057052" size="16384" />
			<output>
				<port id="0" precision="I8">
					<dim>128</dim>
					<dim>128</dim>
					<dim>1</dim>
					<dim>1</dim>
				</port>
			</output>
		</layer>
		<layer id="288" name="Convert_2245449" type="Convert" version="opset1">
			<data destination_type="f32" />
			<input>
				<port id="0" precision="I8">
					<dim>128</dim>
					<dim>128</dim>
					<dim>1</dim>
					<dim>1</dim>
				</port>
			</input>
			<output>
				<port id="1" precision="FP32">
					<dim>128</dim>
					<dim>128</dim>
					<dim>1</dim>
					<dim>1</dim>
				</port>
			</output>
		</layer>
		<layer id="289" name="Constant_2245450" type="Const" version="opset1">
			<data element_type="f32" shape="128, 1, 1, 1" offset="1073436" size="512" />
			<output>
				<port id="0" precision="FP32">
					<dim>128</dim>
					<dim>1</dim>
					<dim>1</dim>
					<dim>1</dim>
				</port>
			</output>
		</layer>
		<layer id="290" name="__module.model.4.m.0.cv3.conv/aten::_convolution/Convolution/fq_weights_1" type="Multiply" version="opset1">
			<data auto_broadcast="numpy" />
			<input>
				<port id="0" precision="FP32">
					<dim>128</dim>
					<dim>128</dim>
					<dim>1</dim>
					<dim>1</dim>
				</port>
				<port id="1" precision="FP32">
					<dim>128</dim>
					<dim>1</dim>
					<dim>1</dim>
					<dim>1</dim>
				</port>
			</input>
			<output>
				<port id="2" precision="FP32">
					<dim>128</dim>
					<dim>128</dim>
					<dim>1</dim>
					<dim>1</dim>
				</port>
			</output>
		</layer>
		<layer id="291" name="__module.model.4.m.0.cv3.conv/aten::_convolution/Convolution" type="Convolution" version="opset1">
			<data strides="1, 1" dilations="1, 1" pads_begin="0, 0" pads_end="0, 0" auto_pad="explicit" />
			<input>
				<port id="0" precision="FP32">
					<dim>1</dim>
					<dim>128</dim>
					<dim>60</dim>
					<dim>60</dim>
				</port>
				<port id="1" precision="FP32">
					<dim>128</dim>
					<dim>128</dim>
					<dim>1</dim>
					<dim>1</dim>
				</port>
			</input>
			<output>
				<port id="2" precision="FP32">
					<dim>1</dim>
					<dim>128</dim>
					<dim>60</dim>
					<dim>60</dim>
				</port>
			</output>
		</layer>
		<layer id="292" name="__module.model.4.m.0.cv3.conv/aten::_convolution/Reshape" type="Const" version="opset1">
			<data element_type="f32" shape="1, 128, 1, 1" offset="1073948" size="512" />
			<output>
				<port id="0" precision="FP32">
					<dim>1</dim>
					<dim>128</dim>
					<dim>1</dim>
					<dim>1</dim>
				</port>
			</output>
		</layer>
		<layer id="293" name="__module.model.4.m.0.cv3.conv/aten::_convolution/Add" type="Add" version="opset1">
			<data auto_broadcast="numpy" />
			<input>
				<port id="0" precision="FP32">
					<dim>1</dim>
					<dim>128</dim>
					<dim>60</dim>
					<dim>60</dim>
				</port>
				<port id="1" precision="FP32">
					<dim>1</dim>
					<dim>128</dim>
					<dim>1</dim>
					<dim>1</dim>
				</port>
			</input>
			<output>
				<port id="2" precision="FP32" names="330_1">
					<dim>1</dim>
					<dim>128</dim>
					<dim>60</dim>
					<dim>60</dim>
				</port>
			</output>
		</layer>
		<layer id="294" name="__module.model.23.cv3.2.1.1.act/aten::silu_/Swish_19" type="Swish" version="opset4">
			<input>
				<port id="0" precision="FP32">
					<dim>1</dim>
					<dim>128</dim>
					<dim>60</dim>
					<dim>60</dim>
				</port>
			</input>
			<output>
				<port id="1" precision="FP32" names="330,input.73">
					<dim>1</dim>
					<dim>128</dim>
					<dim>60</dim>
					<dim>60</dim>
				</port>
			</output>
		</layer>
		<layer id="295" name="__module.model.23.cv3.2.1.1.act/aten::silu_/Swish_19/fq_output_0/input_low" type="Const" version="opset1">
			<data element_type="f32" shape="" offset="114808" size="4" />
			<output>
				<port id="0" precision="FP32" />
			</output>
		</layer>
		<layer id="296" name="__module.model.23.cv3.2.1.1.act/aten::silu_/Swish_19/fq_output_0/input_high" type="Const" version="opset1">
			<data element_type="f32" shape="" offset="153516" size="4" />
			<output>
				<port id="0" precision="FP32" />
			</output>
		</layer>
		<layer id="297" name="__module.model.23.cv3.2.1.1.act/aten::silu_/Swish_19/fq_output_0/output_low" type="Const" version="opset1">
			<data element_type="f32" shape="" offset="114808" size="4" />
			<output>
				<port id="0" precision="FP32" />
			</output>
		</layer>
		<layer id="298" name="__module.model.23.cv3.2.1.1.act/aten::silu_/Swish_19/fq_output_0/output_high" type="Const" version="opset1">
			<data element_type="f32" shape="" offset="153516" size="4" />
			<output>
				<port id="0" precision="FP32" />
			</output>
		</layer>
		<layer id="299" name="__module.model.23.cv3.2.1.1.act/aten::silu_/Swish_19/fq_output_0" type="FakeQuantize" version="opset1">
			<data levels="256" auto_broadcast="numpy" />
			<input>
				<port id="0" precision="FP32">
					<dim>1</dim>
					<dim>128</dim>
					<dim>60</dim>
					<dim>60</dim>
				</port>
				<port id="1" precision="FP32" />
				<port id="2" precision="FP32" />
				<port id="3" precision="FP32" />
				<port id="4" precision="FP32" />
			</input>
			<output>
				<port id="5" precision="FP32">
					<dim>1</dim>
					<dim>128</dim>
					<dim>60</dim>
					<dim>60</dim>
				</port>
			</output>
		</layer>
		<layer id="300" name="__module.model.4/aten::cat/Concat" type="Concat" version="opset1">
			<data axis="1" />
			<input>
				<port id="0" precision="FP32">
					<dim>1</dim>
					<dim>128</dim>
					<dim>60</dim>
					<dim>60</dim>
				</port>
				<port id="1" precision="FP32">
					<dim>1</dim>
					<dim>128</dim>
					<dim>60</dim>
					<dim>60</dim>
				</port>
				<port id="2" precision="FP32">
					<dim>1</dim>
					<dim>128</dim>
					<dim>60</dim>
					<dim>60</dim>
				</port>
			</input>
			<output>
				<port id="3" precision="FP32" names="333,input.75">
					<dim>1</dim>
					<dim>384</dim>
					<dim>60</dim>
					<dim>60</dim>
				</port>
			</output>
		</layer>
		<layer id="301" name="Constant_2245452" type="Const" version="opset1">
			<data element_type="i8" shape="512, 384, 1, 1" offset="1074460" size="196608" />
			<output>
				<port id="0" precision="I8">
					<dim>512</dim>
					<dim>384</dim>
					<dim>1</dim>
					<dim>1</dim>
				</port>
			</output>
		</layer>
		<layer id="302" name="Convert_2245453" type="Convert" version="opset1">
			<data destination_type="f32" />
			<input>
				<port id="0" precision="I8">
					<dim>512</dim>
					<dim>384</dim>
					<dim>1</dim>
					<dim>1</dim>
				</port>
			</input>
			<output>
				<port id="1" precision="FP32">
					<dim>512</dim>
					<dim>384</dim>
					<dim>1</dim>
					<dim>1</dim>
				</port>
			</output>
		</layer>
		<layer id="303" name="Constant_2245454" type="Const" version="opset1">
			<data element_type="f32" shape="512, 1, 1, 1" offset="1271068" size="2048" />
			<output>
				<port id="0" precision="FP32">
					<dim>512</dim>
					<dim>1</dim>
					<dim>1</dim>
					<dim>1</dim>
				</port>
			</output>
		</layer>
		<layer id="304" name="__module.model.4.cv2.conv/aten::_convolution/Convolution/fq_weights_1" type="Multiply" version="opset1">
			<data auto_broadcast="numpy" />
			<input>
				<port id="0" precision="FP32">
					<dim>512</dim>
					<dim>384</dim>
					<dim>1</dim>
					<dim>1</dim>
				</port>
				<port id="1" precision="FP32">
					<dim>512</dim>
					<dim>1</dim>
					<dim>1</dim>
					<dim>1</dim>
				</port>
			</input>
			<output>
				<port id="2" precision="FP32">
					<dim>512</dim>
					<dim>384</dim>
					<dim>1</dim>
					<dim>1</dim>
				</port>
			</output>
		</layer>
		<layer id="305" name="__module.model.4.cv2.conv/aten::_convolution/Convolution" type="Convolution" version="opset1">
			<data strides="1, 1" dilations="1, 1" pads_begin="0, 0" pads_end="0, 0" auto_pad="explicit" />
			<input>
				<port id="0" precision="FP32">
					<dim>1</dim>
					<dim>384</dim>
					<dim>60</dim>
					<dim>60</dim>
				</port>
				<port id="1" precision="FP32">
					<dim>512</dim>
					<dim>384</dim>
					<dim>1</dim>
					<dim>1</dim>
				</port>
			</input>
			<output>
				<port id="2" precision="FP32">
					<dim>1</dim>
					<dim>512</dim>
					<dim>60</dim>
					<dim>60</dim>
				</port>
			</output>
		</layer>
		<layer id="306" name="__module.model.4.cv2.conv/aten::_convolution/Reshape" type="Const" version="opset1">
			<data element_type="f32" shape="1, 512, 1, 1" offset="1273116" size="2048" />
			<output>
				<port id="0" precision="FP32">
					<dim>1</dim>
					<dim>512</dim>
					<dim>1</dim>
					<dim>1</dim>
				</port>
			</output>
		</layer>
		<layer id="307" name="__module.model.4.cv2.conv/aten::_convolution/Add" type="Add" version="opset1">
			<data auto_broadcast="numpy" />
			<input>
				<port id="0" precision="FP32">
					<dim>1</dim>
					<dim>512</dim>
					<dim>60</dim>
					<dim>60</dim>
				</port>
				<port id="1" precision="FP32">
					<dim>1</dim>
					<dim>512</dim>
					<dim>1</dim>
					<dim>1</dim>
				</port>
			</input>
			<output>
				<port id="2" precision="FP32" names="341_1">
					<dim>1</dim>
					<dim>512</dim>
					<dim>60</dim>
					<dim>60</dim>
				</port>
			</output>
		</layer>
		<layer id="308" name="__module.model.23.cv3.2.1.1.act/aten::silu_/Swish_20" type="Swish" version="opset4">
			<input>
				<port id="0" precision="FP32">
					<dim>1</dim>
					<dim>512</dim>
					<dim>60</dim>
					<dim>60</dim>
				</port>
			</input>
			<output>
				<port id="1" precision="FP32" names="341,input.77">
					<dim>1</dim>
					<dim>512</dim>
					<dim>60</dim>
					<dim>60</dim>
				</port>
			</output>
		</layer>
		<layer id="309" name="__module.model.23.cv3.2.1.1.act/aten::silu_/Swish_20/fq_output_0/input_low" type="Const" version="opset1">
			<data element_type="f32" shape="" offset="114808" size="4" />
			<output>
				<port id="0" precision="FP32" />
			</output>
		</layer>
		<layer id="310" name="__module.model.23.cv3.2.1.1.act/aten::silu_/Swish_20/fq_output_0/input_high" type="Const" version="opset1">
			<data element_type="f32" shape="" offset="153516" size="4" />
			<output>
				<port id="0" precision="FP32" />
			</output>
		</layer>
		<layer id="311" name="__module.model.23.cv3.2.1.1.act/aten::silu_/Swish_20/fq_output_0/output_low" type="Const" version="opset1">
			<data element_type="f32" shape="" offset="114808" size="4" />
			<output>
				<port id="0" precision="FP32" />
			</output>
		</layer>
		<layer id="312" name="__module.model.23.cv3.2.1.1.act/aten::silu_/Swish_20/fq_output_0/output_high" type="Const" version="opset1">
			<data element_type="f32" shape="" offset="153516" size="4" />
			<output>
				<port id="0" precision="FP32" />
			</output>
		</layer>
		<layer id="313" name="__module.model.23.cv3.2.1.1.act/aten::silu_/Swish_20/fq_output_0" type="FakeQuantize" version="opset1">
			<data levels="256" auto_broadcast="numpy" />
			<input>
				<port id="0" precision="FP32">
					<dim>1</dim>
					<dim>512</dim>
					<dim>60</dim>
					<dim>60</dim>
				</port>
				<port id="1" precision="FP32" />
				<port id="2" precision="FP32" />
				<port id="3" precision="FP32" />
				<port id="4" precision="FP32" />
			</input>
			<output>
				<port id="5" precision="FP32">
					<dim>1</dim>
					<dim>512</dim>
					<dim>60</dim>
					<dim>60</dim>
				</port>
			</output>
		</layer>
		<layer id="314" name="Constant_2245456" type="Const" version="opset1">
			<data element_type="i8" shape="512, 512, 3, 3" offset="1275164" size="2359296" />
			<output>
				<port id="0" precision="I8">
					<dim>512</dim>
					<dim>512</dim>
					<dim>3</dim>
					<dim>3</dim>
				</port>
			</output>
		</layer>
		<layer id="315" name="Convert_2245457" type="Convert" version="opset1">
			<data destination_type="f32" />
			<input>
				<port id="0" precision="I8">
					<dim>512</dim>
					<dim>512</dim>
					<dim>3</dim>
					<dim>3</dim>
				</port>
			</input>
			<output>
				<port id="1" precision="FP32">
					<dim>512</dim>
					<dim>512</dim>
					<dim>3</dim>
					<dim>3</dim>
				</port>
			</output>
		</layer>
		<layer id="316" name="Constant_2245458" type="Const" version="opset1">
			<data element_type="f32" shape="512, 1, 1, 1" offset="3634460" size="2048" />
			<output>
				<port id="0" precision="FP32">
					<dim>512</dim>
					<dim>1</dim>
					<dim>1</dim>
					<dim>1</dim>
				</port>
			</output>
		</layer>
		<layer id="317" name="__module.model.5.conv/aten::_convolution/Convolution/fq_weights_1" type="Multiply" version="opset1">
			<data auto_broadcast="numpy" />
			<input>
				<port id="0" precision="FP32">
					<dim>512</dim>
					<dim>512</dim>
					<dim>3</dim>
					<dim>3</dim>
				</port>
				<port id="1" precision="FP32">
					<dim>512</dim>
					<dim>1</dim>
					<dim>1</dim>
					<dim>1</dim>
				</port>
			</input>
			<output>
				<port id="2" precision="FP32">
					<dim>512</dim>
					<dim>512</dim>
					<dim>3</dim>
					<dim>3</dim>
				</port>
			</output>
		</layer>
		<layer id="318" name="__module.model.5.conv/aten::_convolution/Convolution" type="Convolution" version="opset1">
			<data strides="2, 2" dilations="1, 1" pads_begin="1, 1" pads_end="1, 1" auto_pad="explicit" />
			<input>
				<port id="0" precision="FP32">
					<dim>1</dim>
					<dim>512</dim>
					<dim>60</dim>
					<dim>60</dim>
				</port>
				<port id="1" precision="FP32">
					<dim>512</dim>
					<dim>512</dim>
					<dim>3</dim>
					<dim>3</dim>
				</port>
			</input>
			<output>
				<port id="2" precision="FP32">
					<dim>1</dim>
					<dim>512</dim>
					<dim>30</dim>
					<dim>30</dim>
				</port>
			</output>
		</layer>
		<layer id="319" name="__module.model.5.conv/aten::_convolution/Reshape" type="Const" version="opset1">
			<data element_type="f32" shape="1, 512, 1, 1" offset="3636508" size="2048" />
			<output>
				<port id="0" precision="FP32">
					<dim>1</dim>
					<dim>512</dim>
					<dim>1</dim>
					<dim>1</dim>
				</port>
			</output>
		</layer>
		<layer id="320" name="__module.model.5.conv/aten::_convolution/Add" type="Add" version="opset1">
			<data auto_broadcast="numpy" />
			<input>
				<port id="0" precision="FP32">
					<dim>1</dim>
					<dim>512</dim>
					<dim>30</dim>
					<dim>30</dim>
				</port>
				<port id="1" precision="FP32">
					<dim>1</dim>
					<dim>512</dim>
					<dim>1</dim>
					<dim>1</dim>
				</port>
			</input>
			<output>
				<port id="2" precision="FP32" names="355_1">
					<dim>1</dim>
					<dim>512</dim>
					<dim>30</dim>
					<dim>30</dim>
				</port>
			</output>
		</layer>
		<layer id="321" name="__module.model.23.cv3.2.1.1.act/aten::silu_/Swish_21" type="Swish" version="opset4">
			<input>
				<port id="0" precision="FP32">
					<dim>1</dim>
					<dim>512</dim>
					<dim>30</dim>
					<dim>30</dim>
				</port>
			</input>
			<output>
				<port id="1" precision="FP32" names="355,input.81">
					<dim>1</dim>
					<dim>512</dim>
					<dim>30</dim>
					<dim>30</dim>
				</port>
			</output>
		</layer>
		<layer id="322" name="__module.model.23.cv3.2.1.1.act/aten::silu_/Swish_21/fq_output_0/input_low" type="Const" version="opset1">
			<data element_type="f32" shape="" offset="114808" size="4" />
			<output>
				<port id="0" precision="FP32" />
			</output>
		</layer>
		<layer id="323" name="__module.model.23.cv3.2.1.1.act/aten::silu_/Swish_21/fq_output_0/input_high" type="Const" version="opset1">
			<data element_type="f32" shape="" offset="3638556" size="4" />
			<output>
				<port id="0" precision="FP32" />
			</output>
		</layer>
		<layer id="324" name="__module.model.23.cv3.2.1.1.act/aten::silu_/Swish_21/fq_output_0/output_low" type="Const" version="opset1">
			<data element_type="f32" shape="" offset="114808" size="4" />
			<output>
				<port id="0" precision="FP32" />
			</output>
		</layer>
		<layer id="325" name="__module.model.23.cv3.2.1.1.act/aten::silu_/Swish_21/fq_output_0/output_high" type="Const" version="opset1">
			<data element_type="f32" shape="" offset="3638556" size="4" />
			<output>
				<port id="0" precision="FP32" />
			</output>
		</layer>
		<layer id="326" name="__module.model.23.cv3.2.1.1.act/aten::silu_/Swish_21/fq_output_0" type="FakeQuantize" version="opset1">
			<data levels="256" auto_broadcast="numpy" />
			<input>
				<port id="0" precision="FP32">
					<dim>1</dim>
					<dim>512</dim>
					<dim>30</dim>
					<dim>30</dim>
				</port>
				<port id="1" precision="FP32" />
				<port id="2" precision="FP32" />
				<port id="3" precision="FP32" />
				<port id="4" precision="FP32" />
			</input>
			<output>
				<port id="5" precision="FP32">
					<dim>1</dim>
					<dim>512</dim>
					<dim>30</dim>
					<dim>30</dim>
				</port>
			</output>
		</layer>
		<layer id="327" name="Constant_2245460" type="Const" version="opset1">
			<data element_type="i8" shape="512, 512, 1, 1" offset="3638560" size="262144" />
			<output>
				<port id="0" precision="I8">
					<dim>512</dim>
					<dim>512</dim>
					<dim>1</dim>
					<dim>1</dim>
				</port>
			</output>
		</layer>
		<layer id="328" name="Convert_2245461" type="Convert" version="opset1">
			<data destination_type="f32" />
			<input>
				<port id="0" precision="I8">
					<dim>512</dim>
					<dim>512</dim>
					<dim>1</dim>
					<dim>1</dim>
				</port>
			</input>
			<output>
				<port id="1" precision="FP32">
					<dim>512</dim>
					<dim>512</dim>
					<dim>1</dim>
					<dim>1</dim>
				</port>
			</output>
		</layer>
		<layer id="329" name="Constant_2245462" type="Const" version="opset1">
			<data element_type="f32" shape="512, 1, 1, 1" offset="3900704" size="2048" />
			<output>
				<port id="0" precision="FP32">
					<dim>512</dim>
					<dim>1</dim>
					<dim>1</dim>
					<dim>1</dim>
				</port>
			</output>
		</layer>
		<layer id="330" name="__module.model.6.cv1.conv/aten::_convolution/Convolution/fq_weights_1" type="Multiply" version="opset1">
			<data auto_broadcast="numpy" />
			<input>
				<port id="0" precision="FP32">
					<dim>512</dim>
					<dim>512</dim>
					<dim>1</dim>
					<dim>1</dim>
				</port>
				<port id="1" precision="FP32">
					<dim>512</dim>
					<dim>1</dim>
					<dim>1</dim>
					<dim>1</dim>
				</port>
			</input>
			<output>
				<port id="2" precision="FP32">
					<dim>512</dim>
					<dim>512</dim>
					<dim>1</dim>
					<dim>1</dim>
				</port>
			</output>
		</layer>
		<layer id="331" name="__module.model.6.cv1.conv/aten::_convolution/Convolution" type="Convolution" version="opset1">
			<data strides="1, 1" dilations="1, 1" pads_begin="0, 0" pads_end="0, 0" auto_pad="explicit" />
			<input>
				<port id="0" precision="FP32">
					<dim>1</dim>
					<dim>512</dim>
					<dim>30</dim>
					<dim>30</dim>
				</port>
				<port id="1" precision="FP32">
					<dim>512</dim>
					<dim>512</dim>
					<dim>1</dim>
					<dim>1</dim>
				</port>
			</input>
			<output>
				<port id="2" precision="FP32">
					<dim>1</dim>
					<dim>512</dim>
					<dim>30</dim>
					<dim>30</dim>
				</port>
			</output>
		</layer>
		<layer id="332" name="__module.model.6.cv1.conv/aten::_convolution/Reshape" type="Const" version="opset1">
			<data element_type="f32" shape="1, 512, 1, 1" offset="3902752" size="2048" />
			<output>
				<port id="0" precision="FP32">
					<dim>1</dim>
					<dim>512</dim>
					<dim>1</dim>
					<dim>1</dim>
				</port>
			</output>
		</layer>
		<layer id="333" name="__module.model.6.cv1.conv/aten::_convolution/Add" type="Add" version="opset1">
			<data auto_broadcast="numpy" />
			<input>
				<port id="0" precision="FP32">
					<dim>1</dim>
					<dim>512</dim>
					<dim>30</dim>
					<dim>30</dim>
				</port>
				<port id="1" precision="FP32">
					<dim>1</dim>
					<dim>512</dim>
					<dim>1</dim>
					<dim>1</dim>
				</port>
			</input>
			<output>
				<port id="2" precision="FP32" names="373_1">
					<dim>1</dim>
					<dim>512</dim>
					<dim>30</dim>
					<dim>30</dim>
				</port>
			</output>
		</layer>
		<layer id="334" name="__module.model.23.cv3.2.1.1.act/aten::silu_/Swish_22" type="Swish" version="opset4">
			<input>
				<port id="0" precision="FP32">
					<dim>1</dim>
					<dim>512</dim>
					<dim>30</dim>
					<dim>30</dim>
				</port>
			</input>
			<output>
				<port id="1" precision="FP32" names="373,input.85">
					<dim>1</dim>
					<dim>512</dim>
					<dim>30</dim>
					<dim>30</dim>
				</port>
			</output>
		</layer>
		<layer id="335" name="__module.model.23.cv3.2.1.1.act/aten::silu_/Swish_22/fq_output_0/input_low" type="Const" version="opset1">
			<data element_type="f32" shape="" offset="3904800" size="4" />
			<output>
				<port id="0" precision="FP32" />
			</output>
		</layer>
		<layer id="336" name="__module.model.23.cv3.2.1.1.act/aten::silu_/Swish_22/fq_output_0/input_high" type="Const" version="opset1">
			<data element_type="f32" shape="" offset="3904804" size="4" />
			<output>
				<port id="0" precision="FP32" />
			</output>
		</layer>
		<layer id="337" name="__module.model.23.cv3.2.1.1.act/aten::silu_/Swish_22/fq_output_0/output_low" type="Const" version="opset1">
			<data element_type="f32" shape="" offset="3904800" size="4" />
			<output>
				<port id="0" precision="FP32" />
			</output>
		</layer>
		<layer id="338" name="__module.model.23.cv3.2.1.1.act/aten::silu_/Swish_22/fq_output_0/output_high" type="Const" version="opset1">
			<data element_type="f32" shape="" offset="3904804" size="4" />
			<output>
				<port id="0" precision="FP32" />
			</output>
		</layer>
		<layer id="339" name="__module.model.23.cv3.2.1.1.act/aten::silu_/Swish_22/fq_output_0" type="FakeQuantize" version="opset1">
			<data levels="256" auto_broadcast="numpy" />
			<input>
				<port id="0" precision="FP32">
					<dim>1</dim>
					<dim>512</dim>
					<dim>30</dim>
					<dim>30</dim>
				</port>
				<port id="1" precision="FP32" />
				<port id="2" precision="FP32" />
				<port id="3" precision="FP32" />
				<port id="4" precision="FP32" />
			</input>
			<output>
				<port id="5" precision="FP32">
					<dim>1</dim>
					<dim>512</dim>
					<dim>30</dim>
					<dim>30</dim>
				</port>
			</output>
		</layer>
		<layer id="340" name="361" type="Const" version="opset1">
			<data element_type="i64" shape="" offset="132232" size="8" />
			<output>
				<port id="0" precision="I64" names="361" />
			</output>
		</layer>
		<layer id="341" name="Constant_1635542" type="Const" version="opset1">
			<data element_type="i64" shape="2" offset="3904808" size="16" />
			<output>
				<port id="0" precision="I64">
					<dim>2</dim>
				</port>
			</output>
		</layer>
		<layer id="342" name="__module.model.6/aten::split_with_sizes/VariadicSplit" type="VariadicSplit" version="opset1">
			<input>
				<port id="0" precision="FP32">
					<dim>1</dim>
					<dim>512</dim>
					<dim>30</dim>
					<dim>30</dim>
				</port>
				<port id="1" precision="I64" />
				<port id="2" precision="I64">
					<dim>2</dim>
				</port>
			</input>
			<output>
				<port id="3" precision="FP32" names="377">
					<dim>1</dim>
					<dim>256</dim>
					<dim>30</dim>
					<dim>30</dim>
				</port>
				<port id="4" precision="FP32" names="378,input.87">
					<dim>1</dim>
					<dim>256</dim>
					<dim>30</dim>
					<dim>30</dim>
				</port>
			</output>
		</layer>
		<layer id="343" name="Constant_2245464" type="Const" version="opset1">
			<data element_type="i8" shape="128, 256, 1, 1" offset="3904824" size="32768" />
			<output>
				<port id="0" precision="I8">
					<dim>128</dim>
					<dim>256</dim>
					<dim>1</dim>
					<dim>1</dim>
				</port>
			</output>
		</layer>
		<layer id="344" name="Convert_2245465" type="Convert" version="opset1">
			<data destination_type="f32" />
			<input>
				<port id="0" precision="I8">
					<dim>128</dim>
					<dim>256</dim>
					<dim>1</dim>
					<dim>1</dim>
				</port>
			</input>
			<output>
				<port id="1" precision="FP32">
					<dim>128</dim>
					<dim>256</dim>
					<dim>1</dim>
					<dim>1</dim>
				</port>
			</output>
		</layer>
		<layer id="345" name="Constant_2245466" type="Const" version="opset1">
			<data element_type="f32" shape="128, 1, 1, 1" offset="3937592" size="512" />
			<output>
				<port id="0" precision="FP32">
					<dim>128</dim>
					<dim>1</dim>
					<dim>1</dim>
					<dim>1</dim>
				</port>
			</output>
		</layer>
		<layer id="346" name="__module.model.6.m.0.cv1.conv/aten::_convolution/Convolution/fq_weights_1" type="Multiply" version="opset1">
			<data auto_broadcast="numpy" />
			<input>
				<port id="0" precision="FP32">
					<dim>128</dim>
					<dim>256</dim>
					<dim>1</dim>
					<dim>1</dim>
				</port>
				<port id="1" precision="FP32">
					<dim>128</dim>
					<dim>1</dim>
					<dim>1</dim>
					<dim>1</dim>
				</port>
			</input>
			<output>
				<port id="2" precision="FP32">
					<dim>128</dim>
					<dim>256</dim>
					<dim>1</dim>
					<dim>1</dim>
				</port>
			</output>
		</layer>
		<layer id="347" name="__module.model.6.m.0.cv1.conv/aten::_convolution/Convolution" type="Convolution" version="opset1">
			<data strides="1, 1" dilations="1, 1" pads_begin="0, 0" pads_end="0, 0" auto_pad="explicit" />
			<input>
				<port id="0" precision="FP32">
					<dim>1</dim>
					<dim>256</dim>
					<dim>30</dim>
					<dim>30</dim>
				</port>
				<port id="1" precision="FP32">
					<dim>128</dim>
					<dim>256</dim>
					<dim>1</dim>
					<dim>1</dim>
				</port>
			</input>
			<output>
				<port id="2" precision="FP32">
					<dim>1</dim>
					<dim>128</dim>
					<dim>30</dim>
					<dim>30</dim>
				</port>
			</output>
		</layer>
		<layer id="348" name="__module.model.6.m.0.cv1.conv/aten::_convolution/Reshape" type="Const" version="opset1">
			<data element_type="f32" shape="1, 128, 1, 1" offset="3938104" size="512" />
			<output>
				<port id="0" precision="FP32">
					<dim>1</dim>
					<dim>128</dim>
					<dim>1</dim>
					<dim>1</dim>
				</port>
			</output>
		</layer>
		<layer id="349" name="__module.model.6.m.0.cv1.conv/aten::_convolution/Add" type="Add" version="opset1">
			<data auto_broadcast="numpy" />
			<input>
				<port id="0" precision="FP32">
					<dim>1</dim>
					<dim>128</dim>
					<dim>30</dim>
					<dim>30</dim>
				</port>
				<port id="1" precision="FP32">
					<dim>1</dim>
					<dim>128</dim>
					<dim>1</dim>
					<dim>1</dim>
				</port>
			</input>
			<output>
				<port id="2" precision="FP32" names="390_1">
					<dim>1</dim>
					<dim>128</dim>
					<dim>30</dim>
					<dim>30</dim>
				</port>
			</output>
		</layer>
		<layer id="350" name="__module.model.23.cv3.2.1.1.act/aten::silu_/Swish_23" type="Swish" version="opset4">
			<input>
				<port id="0" precision="FP32">
					<dim>1</dim>
					<dim>128</dim>
					<dim>30</dim>
					<dim>30</dim>
				</port>
			</input>
			<output>
				<port id="1" precision="FP32" names="390,input.89">
					<dim>1</dim>
					<dim>128</dim>
					<dim>30</dim>
					<dim>30</dim>
				</port>
			</output>
		</layer>
		<layer id="351" name="__module.model.23.cv3.2.1.1.act/aten::silu_/Swish_23/fq_output_0/input_low" type="Const" version="opset1">
			<data element_type="f32" shape="" offset="172480" size="4" />
			<output>
				<port id="0" precision="FP32" />
			</output>
		</layer>
		<layer id="352" name="__module.model.23.cv3.2.1.1.act/aten::silu_/Swish_23/fq_output_0/input_high" type="Const" version="opset1">
			<data element_type="f32" shape="" offset="3938616" size="4" />
			<output>
				<port id="0" precision="FP32" />
			</output>
		</layer>
		<layer id="353" name="__module.model.23.cv3.2.1.1.act/aten::silu_/Swish_23/fq_output_0/output_low" type="Const" version="opset1">
			<data element_type="f32" shape="" offset="172480" size="4" />
			<output>
				<port id="0" precision="FP32" />
			</output>
		</layer>
		<layer id="354" name="__module.model.23.cv3.2.1.1.act/aten::silu_/Swish_23/fq_output_0/output_high" type="Const" version="opset1">
			<data element_type="f32" shape="" offset="3938616" size="4" />
			<output>
				<port id="0" precision="FP32" />
			</output>
		</layer>
		<layer id="355" name="__module.model.23.cv3.2.1.1.act/aten::silu_/Swish_23/fq_output_0" type="FakeQuantize" version="opset1">
			<data levels="256" auto_broadcast="numpy" />
			<input>
				<port id="0" precision="FP32">
					<dim>1</dim>
					<dim>128</dim>
					<dim>30</dim>
					<dim>30</dim>
				</port>
				<port id="1" precision="FP32" />
				<port id="2" precision="FP32" />
				<port id="3" precision="FP32" />
				<port id="4" precision="FP32" />
			</input>
			<output>
				<port id="5" precision="FP32">
					<dim>1</dim>
					<dim>128</dim>
					<dim>30</dim>
					<dim>30</dim>
				</port>
			</output>
		</layer>
		<layer id="356" name="Constant_2245468" type="Const" version="opset1">
			<data element_type="i8" shape="128, 128, 3, 3" offset="3938620" size="147456" />
			<output>
				<port id="0" precision="I8">
					<dim>128</dim>
					<dim>128</dim>
					<dim>3</dim>
					<dim>3</dim>
				</port>
			</output>
		</layer>
		<layer id="357" name="Convert_2245469" type="Convert" version="opset1">
			<data destination_type="f32" />
			<input>
				<port id="0" precision="I8">
					<dim>128</dim>
					<dim>128</dim>
					<dim>3</dim>
					<dim>3</dim>
				</port>
			</input>
			<output>
				<port id="1" precision="FP32">
					<dim>128</dim>
					<dim>128</dim>
					<dim>3</dim>
					<dim>3</dim>
				</port>
			</output>
		</layer>
		<layer id="358" name="Constant_2245470" type="Const" version="opset1">
			<data element_type="f32" shape="128, 1, 1, 1" offset="4086076" size="512" />
			<output>
				<port id="0" precision="FP32">
					<dim>128</dim>
					<dim>1</dim>
					<dim>1</dim>
					<dim>1</dim>
				</port>
			</output>
		</layer>
		<layer id="359" name="__module.model.6.m.0.m.0.cv1.conv/aten::_convolution/Convolution/fq_weights_1" type="Multiply" version="opset1">
			<data auto_broadcast="numpy" />
			<input>
				<port id="0" precision="FP32">
					<dim>128</dim>
					<dim>128</dim>
					<dim>3</dim>
					<dim>3</dim>
				</port>
				<port id="1" precision="FP32">
					<dim>128</dim>
					<dim>1</dim>
					<dim>1</dim>
					<dim>1</dim>
				</port>
			</input>
			<output>
				<port id="2" precision="FP32">
					<dim>128</dim>
					<dim>128</dim>
					<dim>3</dim>
					<dim>3</dim>
				</port>
			</output>
		</layer>
		<layer id="360" name="__module.model.6.m.0.m.0.cv1.conv/aten::_convolution/Convolution" type="Convolution" version="opset1">
			<data strides="1, 1" dilations="1, 1" pads_begin="1, 1" pads_end="1, 1" auto_pad="explicit" />
			<input>
				<port id="0" precision="FP32">
					<dim>1</dim>
					<dim>128</dim>
					<dim>30</dim>
					<dim>30</dim>
				</port>
				<port id="1" precision="FP32">
					<dim>128</dim>
					<dim>128</dim>
					<dim>3</dim>
					<dim>3</dim>
				</port>
			</input>
			<output>
				<port id="2" precision="FP32">
					<dim>1</dim>
					<dim>128</dim>
					<dim>30</dim>
					<dim>30</dim>
				</port>
			</output>
		</layer>
		<layer id="361" name="__module.model.6.m.0.m.0.cv1.conv/aten::_convolution/Reshape" type="Const" version="opset1">
			<data element_type="f32" shape="1, 128, 1, 1" offset="4086588" size="512" />
			<output>
				<port id="0" precision="FP32">
					<dim>1</dim>
					<dim>128</dim>
					<dim>1</dim>
					<dim>1</dim>
				</port>
			</output>
		</layer>
		<layer id="362" name="__module.model.6.m.0.m.0.cv1.conv/aten::_convolution/Add" type="Add" version="opset1">
			<data auto_broadcast="numpy" />
			<input>
				<port id="0" precision="FP32">
					<dim>1</dim>
					<dim>128</dim>
					<dim>30</dim>
					<dim>30</dim>
				</port>
				<port id="1" precision="FP32">
					<dim>1</dim>
					<dim>128</dim>
					<dim>1</dim>
					<dim>1</dim>
				</port>
			</input>
			<output>
				<port id="2" precision="FP32" names="403_1">
					<dim>1</dim>
					<dim>128</dim>
					<dim>30</dim>
					<dim>30</dim>
				</port>
			</output>
		</layer>
		<layer id="363" name="__module.model.23.cv3.2.1.1.act/aten::silu_/Swish_24" type="Swish" version="opset4">
			<input>
				<port id="0" precision="FP32">
					<dim>1</dim>
					<dim>128</dim>
					<dim>30</dim>
					<dim>30</dim>
				</port>
			</input>
			<output>
				<port id="1" precision="FP32" names="403,input.93">
					<dim>1</dim>
					<dim>128</dim>
					<dim>30</dim>
					<dim>30</dim>
				</port>
			</output>
		</layer>
		<layer id="364" name="__module.model.23.cv3.2.1.1.act/aten::silu_/Swish_24/fq_output_0/input_low" type="Const" version="opset1">
			<data element_type="f32" shape="" offset="4087100" size="4" />
			<output>
				<port id="0" precision="FP32" />
			</output>
		</layer>
		<layer id="365" name="__module.model.23.cv3.2.1.1.act/aten::silu_/Swish_24/fq_output_0/input_high" type="Const" version="opset1">
			<data element_type="f32" shape="" offset="4087104" size="4" />
			<output>
				<port id="0" precision="FP32" />
			</output>
		</layer>
		<layer id="366" name="__module.model.23.cv3.2.1.1.act/aten::silu_/Swish_24/fq_output_0/output_low" type="Const" version="opset1">
			<data element_type="f32" shape="" offset="4087100" size="4" />
			<output>
				<port id="0" precision="FP32" />
			</output>
		</layer>
		<layer id="367" name="__module.model.23.cv3.2.1.1.act/aten::silu_/Swish_24/fq_output_0/output_high" type="Const" version="opset1">
			<data element_type="f32" shape="" offset="4087104" size="4" />
			<output>
				<port id="0" precision="FP32" />
			</output>
		</layer>
		<layer id="368" name="__module.model.23.cv3.2.1.1.act/aten::silu_/Swish_24/fq_output_0" type="FakeQuantize" version="opset1">
			<data levels="256" auto_broadcast="numpy" />
			<input>
				<port id="0" precision="FP32">
					<dim>1</dim>
					<dim>128</dim>
					<dim>30</dim>
					<dim>30</dim>
				</port>
				<port id="1" precision="FP32" />
				<port id="2" precision="FP32" />
…
		<edge from-layer="1016" from-port="1" to-layer="1018" to-port="0" />
		<edge from-layer="1017" from-port="0" to-layer="1018" to-port="1" />
		<edge from-layer="1018" from-port="2" to-layer="1019" to-port="1" />
		<edge from-layer="1019" from-port="2" to-layer="1021" to-port="0" />
		<edge from-layer="1020" from-port="0" to-layer="1021" to-port="1" />
		<edge from-layer="1021" from-port="2" to-layer="1022" to-port="0" />
		<edge from-layer="1022" from-port="1" to-layer="1027" to-port="0" />
		<edge from-layer="1023" from-port="0" to-layer="1027" to-port="1" />
		<edge from-layer="1024" from-port="0" to-layer="1027" to-port="2" />
		<edge from-layer="1025" from-port="0" to-layer="1027" to-port="3" />
		<edge from-layer="1026" from-port="0" to-layer="1027" to-port="4" />
		<edge from-layer="1027" from-port="5" to-layer="1028" to-port="1" />
		<edge from-layer="1028" from-port="2" to-layer="1033" to-port="0" />
		<edge from-layer="1029" from-port="0" to-layer="1030" to-port="0" />
		<edge from-layer="1030" from-port="1" to-layer="1032" to-port="0" />
		<edge from-layer="1031" from-port="0" to-layer="1032" to-port="1" />
		<edge from-layer="1032" from-port="2" to-layer="1033" to-port="1" />
		<edge from-layer="1033" from-port="2" to-layer="1035" to-port="0" />
		<edge from-layer="1034" from-port="0" to-layer="1035" to-port="1" />
		<edge from-layer="1035" from-port="2" to-layer="1036" to-port="0" />
		<edge from-layer="1036" from-port="1" to-layer="1041" to-port="0" />
		<edge from-layer="1037" from-port="0" to-layer="1041" to-port="1" />
		<edge from-layer="1038" from-port="0" to-layer="1041" to-port="2" />
		<edge from-layer="1039" from-port="0" to-layer="1041" to-port="3" />
		<edge from-layer="1040" from-port="0" to-layer="1041" to-port="4" />
		<edge from-layer="1041" from-port="5" to-layer="1042" to-port="2" />
		<edge from-layer="1042" from-port="3" to-layer="1047" to-port="0" />
		<edge from-layer="1043" from-port="0" to-layer="1044" to-port="0" />
		<edge from-layer="1044" from-port="1" to-layer="1046" to-port="0" />
		<edge from-layer="1045" from-port="0" to-layer="1046" to-port="1" />
		<edge from-layer="1046" from-port="2" to-layer="1047" to-port="1" />
		<edge from-layer="1047" from-port="2" to-layer="1049" to-port="0" />
		<edge from-layer="1048" from-port="0" to-layer="1049" to-port="1" />
		<edge from-layer="1049" from-port="2" to-layer="1050" to-port="0" />
		<edge from-layer="1050" from-port="1" to-layer="1055" to-port="0" />
		<edge from-layer="1051" from-port="0" to-layer="1055" to-port="1" />
		<edge from-layer="1052" from-port="0" to-layer="1055" to-port="2" />
		<edge from-layer="1053" from-port="0" to-layer="1055" to-port="3" />
		<edge from-layer="1054" from-port="0" to-layer="1055" to-port="4" />
		<edge from-layer="1055" from-port="5" to-layer="1095" to-port="0" />
		<edge from-layer="1055" from-port="5" to-layer="1501" to-port="0" />
		<edge from-layer="1055" from-port="5" to-layer="1060" to-port="0" />
		<edge from-layer="1056" from-port="0" to-layer="1057" to-port="0" />
		<edge from-layer="1057" from-port="1" to-layer="1059" to-port="0" />
		<edge from-layer="1058" from-port="0" to-layer="1059" to-port="1" />
		<edge from-layer="1059" from-port="2" to-layer="1060" to-port="1" />
		<edge from-layer="1060" from-port="2" to-layer="1062" to-port="0" />
		<edge from-layer="1061" from-port="0" to-layer="1062" to-port="1" />
		<edge from-layer="1062" from-port="2" to-layer="1063" to-port="0" />
		<edge from-layer="1063" from-port="1" to-layer="1068" to-port="0" />
		<edge from-layer="1064" from-port="0" to-layer="1068" to-port="1" />
		<edge from-layer="1065" from-port="0" to-layer="1068" to-port="2" />
		<edge from-layer="1066" from-port="0" to-layer="1068" to-port="3" />
		<edge from-layer="1067" from-port="0" to-layer="1068" to-port="4" />
		<edge from-layer="1068" from-port="5" to-layer="1073" to-port="0" />
		<edge from-layer="1069" from-port="0" to-layer="1070" to-port="0" />
		<edge from-layer="1070" from-port="1" to-layer="1072" to-port="0" />
		<edge from-layer="1071" from-port="0" to-layer="1072" to-port="1" />
		<edge from-layer="1072" from-port="2" to-layer="1073" to-port="1" />
		<edge from-layer="1073" from-port="2" to-layer="1075" to-port="0" />
		<edge from-layer="1074" from-port="0" to-layer="1075" to-port="1" />
		<edge from-layer="1075" from-port="2" to-layer="1076" to-port="0" />
		<edge from-layer="1076" from-port="1" to-layer="1081" to-port="0" />
		<edge from-layer="1077" from-port="0" to-layer="1081" to-port="1" />
		<edge from-layer="1078" from-port="0" to-layer="1081" to-port="2" />
		<edge from-layer="1079" from-port="0" to-layer="1081" to-port="3" />
		<edge from-layer="1080" from-port="0" to-layer="1081" to-port="4" />
		<edge from-layer="1081" from-port="5" to-layer="1086" to-port="0" />
		<edge from-layer="1082" from-port="0" to-layer="1083" to-port="0" />
		<edge from-layer="1083" from-port="1" to-layer="1085" to-port="0" />
		<edge from-layer="1084" from-port="0" to-layer="1085" to-port="1" />
		<edge from-layer="1085" from-port="2" to-layer="1086" to-port="1" />
		<edge from-layer="1086" from-port="2" to-layer="1088" to-port="0" />
		<edge from-layer="1087" from-port="0" to-layer="1088" to-port="1" />
		<edge from-layer="1088" from-port="2" to-layer="1090" to-port="0" />
		<edge from-layer="1089" from-port="0" to-layer="1090" to-port="1" />
		<edge from-layer="1090" from-port="2" to-layer="1457" to-port="0" />
		<edge from-layer="1091" from-port="0" to-layer="1092" to-port="0" />
		<edge from-layer="1092" from-port="1" to-layer="1094" to-port="0" />
		<edge from-layer="1093" from-port="0" to-layer="1094" to-port="1" />
		<edge from-layer="1094" from-port="2" to-layer="1095" to-port="1" />
		<edge from-layer="1095" from-port="2" to-layer="1097" to-port="0" />
		<edge from-layer="1096" from-port="0" to-layer="1097" to-port="1" />
		<edge from-layer="1097" from-port="2" to-layer="1098" to-port="0" />
		<edge from-layer="1098" from-port="1" to-layer="1103" to-port="0" />
		<edge from-layer="1099" from-port="0" to-layer="1103" to-port="1" />
		<edge from-layer="1100" from-port="0" to-layer="1103" to-port="2" />
		<edge from-layer="1101" from-port="0" to-layer="1103" to-port="3" />
		<edge from-layer="1102" from-port="0" to-layer="1103" to-port="4" />
		<edge from-layer="1103" from-port="5" to-layer="1104" to-port="0" />
		<edge from-layer="1104" from-port="2" to-layer="1109" to-port="0" />
		<edge from-layer="1105" from-port="0" to-layer="1106" to-port="0" />
		<edge from-layer="1106" from-port="1" to-layer="1108" to-port="0" />
		<edge from-layer="1107" from-port="0" to-layer="1108" to-port="1" />
		<edge from-layer="1108" from-port="2" to-layer="1109" to-port="1" />
		<edge from-layer="1109" from-port="2" to-layer="1111" to-port="0" />
		<edge from-layer="1110" from-port="0" to-layer="1111" to-port="1" />
		<edge from-layer="1111" from-port="2" to-layer="1112" to-port="0" />
		<edge from-layer="1112" from-port="1" to-layer="1117" to-port="0" />
		<edge from-layer="1113" from-port="0" to-layer="1117" to-port="1" />
		<edge from-layer="1114" from-port="0" to-layer="1117" to-port="2" />
		<edge from-layer="1115" from-port="0" to-layer="1117" to-port="3" />
		<edge from-layer="1116" from-port="0" to-layer="1117" to-port="4" />
		<edge from-layer="1117" from-port="5" to-layer="1120" to-port="0" />
		<edge from-layer="1118" from-port="0" to-layer="1120" to-port="1" />
		<edge from-layer="1119" from-port="0" to-layer="1120" to-port="2" />
		<edge from-layer="1120" from-port="4" to-layer="1125" to-port="0" />
		<edge from-layer="1120" from-port="4" to-layer="1202" to-port="0" />
		<edge from-layer="1120" from-port="3" to-layer="1225" to-port="0" />
		<edge from-layer="1120" from-port="4" to-layer="1225" to-port="1" />
		<edge from-layer="1121" from-port="0" to-layer="1122" to-port="0" />
		<edge from-layer="1122" from-port="1" to-layer="1124" to-port="0" />
		<edge from-layer="1123" from-port="0" to-layer="1124" to-port="1" />
		<edge from-layer="1124" from-port="2" to-layer="1125" to-port="1" />
		<edge from-layer="1125" from-port="2" to-layer="1127" to-port="0" />
		<edge from-layer="1126" from-port="0" to-layer="1127" to-port="1" />
		<edge from-layer="1127" from-port="2" to-layer="1128" to-port="0" />
		<edge from-layer="1128" from-port="1" to-layer="1133" to-port="0" />
		<edge from-layer="1129" from-port="0" to-layer="1133" to-port="1" />
		<edge from-layer="1130" from-port="0" to-layer="1133" to-port="2" />
		<edge from-layer="1131" from-port="0" to-layer="1133" to-port="3" />
		<edge from-layer="1132" from-port="0" to-layer="1133" to-port="4" />
		<edge from-layer="1133" from-port="5" to-layer="1138" to-port="0" />
		<edge from-layer="1133" from-port="5" to-layer="1160" to-port="0" />
		<edge from-layer="1134" from-port="0" to-layer="1135" to-port="0" />
		<edge from-layer="1135" from-port="1" to-layer="1137" to-port="0" />
		<edge from-layer="1136" from-port="0" to-layer="1137" to-port="1" />
		<edge from-layer="1137" from-port="2" to-layer="1138" to-port="1" />
		<edge from-layer="1138" from-port="2" to-layer="1140" to-port="0" />
		<edge from-layer="1139" from-port="0" to-layer="1140" to-port="1" />
		<edge from-layer="1140" from-port="2" to-layer="1141" to-port="0" />
		<edge from-layer="1141" from-port="1" to-layer="1146" to-port="0" />
		<edge from-layer="1142" from-port="0" to-layer="1146" to-port="1" />
		<edge from-layer="1143" from-port="0" to-layer="1146" to-port="2" />
		<edge from-layer="1144" from-port="0" to-layer="1146" to-port="3" />
		<edge from-layer="1145" from-port="0" to-layer="1146" to-port="4" />
		<edge from-layer="1146" from-port="5" to-layer="1151" to-port="0" />
		<edge from-layer="1147" from-port="0" to-layer="1148" to-port="0" />
		<edge from-layer="1148" from-port="1" to-layer="1150" to-port="0" />
		<edge from-layer="1149" from-port="0" to-layer="1150" to-port="1" />
		<edge from-layer="1150" from-port="2" to-layer="1151" to-port="1" />
		<edge from-layer="1151" from-port="2" to-layer="1153" to-port="0" />
		<edge from-layer="1152" from-port="0" to-layer="1153" to-port="1" />
		<edge from-layer="1153" from-port="2" to-layer="1154" to-port="0" />
		<edge from-layer="1154" from-port="1" to-layer="1159" to-port="0" />
		<edge from-layer="1155" from-port="0" to-layer="1159" to-port="1" />
		<edge from-layer="1156" from-port="0" to-layer="1159" to-port="2" />
		<edge from-layer="1157" from-port="0" to-layer="1159" to-port="3" />
		<edge from-layer="1158" from-port="0" to-layer="1159" to-port="4" />
		<edge from-layer="1159" from-port="5" to-layer="1160" to-port="1" />
		<edge from-layer="1160" from-port="2" to-layer="1165" to-port="0" />
		<edge from-layer="1161" from-port="0" to-layer="1165" to-port="1" />
		<edge from-layer="1162" from-port="0" to-layer="1165" to-port="2" />
		<edge from-layer="1163" from-port="0" to-layer="1165" to-port="3" />
		<edge from-layer="1164" from-port="0" to-layer="1165" to-port="4" />
		<edge from-layer="1165" from-port="5" to-layer="1170" to-port="0" />
		<edge from-layer="1165" from-port="5" to-layer="1192" to-port="0" />
		<edge from-layer="1166" from-port="0" to-layer="1167" to-port="0" />
		<edge from-layer="1167" from-port="1" to-layer="1169" to-port="0" />
		<edge from-layer="1168" from-port="0" to-layer="1169" to-port="1" />
		<edge from-layer="1169" from-port="2" to-layer="1170" to-port="1" />
		<edge from-layer="1170" from-port="2" to-layer="1172" to-port="0" />
		<edge from-layer="1171" from-port="0" to-layer="1172" to-port="1" />
		<edge from-layer="1172" from-port="2" to-layer="1173" to-port="0" />
		<edge from-layer="1173" from-port="1" to-layer="1178" to-port="0" />
		<edge from-layer="1174" from-port="0" to-layer="1178" to-port="1" />
		<edge from-layer="1175" from-port="0" to-layer="1178" to-port="2" />
		<edge from-layer="1176" from-port="0" to-layer="1178" to-port="3" />
		<edge from-layer="1177" from-port="0" to-layer="1178" to-port="4" />
		<edge from-layer="1178" from-port="5" to-layer="1183" to-port="0" />
		<edge from-layer="1179" from-port="0" to-layer="1180" to-port="0" />
		<edge from-layer="1180" from-port="1" to-layer="1182" to-port="0" />
		<edge from-layer="1181" from-port="0" to-layer="1182" to-port="1" />
		<edge from-layer="1182" from-port="2" to-layer="1183" to-port="1" />
		<edge from-layer="1183" from-port="2" to-layer="1185" to-port="0" />
		<edge from-layer="1184" from-port="0" to-layer="1185" to-port="1" />
		<edge from-layer="1185" from-port="2" to-layer="1186" to-port="0" />
		<edge from-layer="1186" from-port="1" to-layer="1191" to-port="0" />
		<edge from-layer="1187" from-port="0" to-layer="1191" to-port="1" />
		<edge from-layer="1188" from-port="0" to-layer="1191" to-port="2" />
		<edge from-layer="1189" from-port="0" to-layer="1191" to-port="3" />
		<edge from-layer="1190" from-port="0" to-layer="1191" to-port="4" />
		<edge from-layer="1191" from-port="5" to-layer="1192" to-port="1" />
		<edge from-layer="1192" from-port="2" to-layer="1197" to-port="0" />
		<edge from-layer="1193" from-port="0" to-layer="1197" to-port="1" />
		<edge from-layer="1194" from-port="0" to-layer="1197" to-port="2" />
		<edge from-layer="1195" from-port="0" to-layer="1197" to-port="3" />
		<edge from-layer="1196" from-port="0" to-layer="1197" to-port="4" />
		<edge from-layer="1197" from-port="5" to-layer="1211" to-port="0" />
		<edge from-layer="1198" from-port="0" to-layer="1199" to-port="0" />
		<edge from-layer="1199" from-port="1" to-layer="1201" to-port="0" />
		<edge from-layer="1200" from-port="0" to-layer="1201" to-port="1" />
		<edge from-layer="1201" from-port="2" to-layer="1202" to-port="1" />
		<edge from-layer="1202" from-port="2" to-layer="1204" to-port="0" />
		<edge from-layer="1203" from-port="0" to-layer="1204" to-port="1" />
		<edge from-layer="1204" from-port="2" to-layer="1205" to-port="0" />
		<edge from-layer="1205" from-port="1" to-layer="1210" to-port="0" />
		<edge from-layer="1206" from-port="0" to-layer="1210" to-port="1" />
		<edge from-layer="1207" from-port="0" to-layer="1210" to-port="2" />
		<edge from-layer="1208" from-port="0" to-layer="1210" to-port="3" />
		<edge from-layer="1209" from-port="0" to-layer="1210" to-port="4" />
		<edge from-layer="1210" from-port="5" to-layer="1211" to-port="1" />
		<edge from-layer="1211" from-port="2" to-layer="1216" to-port="0" />
		<edge from-layer="1212" from-port="0" to-layer="1213" to-port="0" />
		<edge from-layer="1213" from-port="1" to-layer="1215" to-port="0" />
		<edge from-layer="1214" from-port="0" to-layer="1215" to-port="1" />
		<edge from-layer="1215" from-port="2" to-layer="1216" to-port="1" />
		<edge from-layer="1216" from-port="2" to-layer="1218" to-port="0" />
		<edge from-layer="1217" from-port="0" to-layer="1218" to-port="1" />
		<edge from-layer="1218" from-port="2" to-layer="1219" to-port="0" />
		<edge from-layer="1219" from-port="1" to-layer="1224" to-port="0" />
		<edge from-layer="1220" from-port="0" to-layer="1224" to-port="1" />
		<edge from-layer="1221" from-port="0" to-layer="1224" to-port="2" />
		<edge from-layer="1222" from-port="0" to-layer="1224" to-port="3" />
		<edge from-layer="1223" from-port="0" to-layer="1224" to-port="4" />
		<edge from-layer="1224" from-port="5" to-layer="1225" to-port="2" />
		<edge from-layer="1225" from-port="3" to-layer="1230" to-port="0" />
		<edge from-layer="1226" from-port="0" to-layer="1227" to-port="0" />
		<edge from-layer="1227" from-port="1" to-layer="1229" to-port="0" />
		<edge from-layer="1228" from-port="0" to-layer="1229" to-port="1" />
		<edge from-layer="1229" from-port="2" to-layer="1230" to-port="1" />
		<edge from-layer="1230" from-port="2" to-layer="1232" to-port="0" />
		<edge from-layer="1231" from-port="0" to-layer="1232" to-port="1" />
		<edge from-layer="1232" from-port="2" to-layer="1233" to-port="0" />
		<edge from-layer="1233" from-port="1" to-layer="1238" to-port="0" />
		<edge from-layer="1234" from-port="0" to-layer="1238" to-port="1" />
		<edge from-layer="1235" from-port="0" to-layer="1238" to-port="2" />
		<edge from-layer="1236" from-port="0" to-layer="1238" to-port="3" />
		<edge from-layer="1237" from-port="0" to-layer="1238" to-port="4" />
		<edge from-layer="1238" from-port="5" to-layer="1562" to-port="0" />
		<edge from-layer="1238" from-port="5" to-layer="1243" to-port="0" />
		<edge from-layer="1238" from-port="5" to-layer="1278" to-port="0" />
		<edge from-layer="1239" from-port="0" to-layer="1240" to-port="0" />
		<edge from-layer="1240" from-port="1" to-layer="1242" to-port="0" />
		<edge from-layer="1241" from-port="0" to-layer="1242" to-port="1" />
		<edge from-layer="1242" from-port="2" to-layer="1243" to-port="1" />
		<edge from-layer="1243" from-port="2" to-layer="1245" to-port="0" />
		<edge from-layer="1244" from-port="0" to-layer="1245" to-port="1" />
		<edge from-layer="1245" from-port="2" to-layer="1246" to-port="0" />
		<edge from-layer="1246" from-port="1" to-layer="1251" to-port="0" />
		<edge from-layer="1247" from-port="0" to-layer="1251" to-port="1" />
		<edge from-layer="1248" from-port="0" to-layer="1251" to-port="2" />
		<edge from-layer="1249" from-port="0" to-layer="1251" to-port="3" />
		<edge from-layer="1250" from-port="0" to-layer="1251" to-port="4" />
		<edge from-layer="1251" from-port="5" to-layer="1256" to-port="0" />
		<edge from-layer="1252" from-port="0" to-layer="1253" to-port="0" />
		<edge from-layer="1253" from-port="1" to-layer="1255" to-port="0" />
		<edge from-layer="1254" from-port="0" to-layer="1255" to-port="1" />
		<edge from-layer="1255" from-port="2" to-layer="1256" to-port="1" />
		<edge from-layer="1256" from-port="2" to-layer="1258" to-port="0" />
		<edge from-layer="1257" from-port="0" to-layer="1258" to-port="1" />
		<edge from-layer="1258" from-port="2" to-layer="1259" to-port="0" />
		<edge from-layer="1259" from-port="1" to-layer="1264" to-port="0" />
		<edge from-layer="1260" from-port="0" to-layer="1264" to-port="1" />
		<edge from-layer="1261" from-port="0" to-layer="1264" to-port="2" />
		<edge from-layer="1262" from-port="0" to-layer="1264" to-port="3" />
		<edge from-layer="1263" from-port="0" to-layer="1264" to-port="4" />
		<edge from-layer="1264" from-port="5" to-layer="1269" to-port="0" />
		<edge from-layer="1265" from-port="0" to-layer="1266" to-port="0" />
		<edge from-layer="1266" from-port="1" to-layer="1268" to-port="0" />
		<edge from-layer="1267" from-port="0" to-layer="1268" to-port="1" />
		<edge from-layer="1268" from-port="2" to-layer="1269" to-port="1" />
		<edge from-layer="1269" from-port="2" to-layer="1271" to-port="0" />
		<edge from-layer="1270" from-port="0" to-layer="1271" to-port="1" />
		<edge from-layer="1271" from-port="2" to-layer="1273" to-port="0" />
		<edge from-layer="1272" from-port="0" to-layer="1273" to-port="1" />
		<edge from-layer="1273" from-port="2" to-layer="1457" to-port="1" />
		<edge from-layer="1274" from-port="0" to-layer="1275" to-port="0" />
		<edge from-layer="1275" from-port="1" to-layer="1277" to-port="0" />
		<edge from-layer="1276" from-port="0" to-layer="1277" to-port="1" />
		<edge from-layer="1277" from-port="2" to-layer="1278" to-port="1" />
		<edge from-layer="1278" from-port="2" to-layer="1280" to-port="0" />
		<edge from-layer="1279" from-port="0" to-layer="1280" to-port="1" />
		<edge from-layer="1280" from-port="2" to-layer="1281" to-port="0" />
		<edge from-layer="1281" from-port="1" to-layer="1286" to-port="0" />
		<edge from-layer="1282" from-port="0" to-layer="1286" to-port="1" />
		<edge from-layer="1283" from-port="0" to-layer="1286" to-port="2" />
		<edge from-layer="1284" from-port="0" to-layer="1286" to-port="3" />
		<edge from-layer="1285" from-port="0" to-layer="1286" to-port="4" />
		<edge from-layer="1286" from-port="5" to-layer="1287" to-port="0" />
		<edge from-layer="1287" from-port="2" to-layer="1292" to-port="0" />
		<edge from-layer="1288" from-port="0" to-layer="1289" to-port="0" />
		<edge from-layer="1289" from-port="1" to-layer="1291" to-port="0" />
		<edge from-layer="1290" from-port="0" to-layer="1291" to-port="1" />
		<edge from-layer="1291" from-port="2" to-layer="1292" to-port="1" />
		<edge from-layer="1292" from-port="2" to-layer="1294" to-port="0" />
		<edge from-layer="1293" from-port="0" to-layer="1294" to-port="1" />
		<edge from-layer="1294" from-port="2" to-layer="1295" to-port="0" />
		<edge from-layer="1295" from-port="1" to-layer="1300" to-port="0" />
		<edge from-layer="1296" from-port="0" to-layer="1300" to-port="1" />
		<edge from-layer="1297" from-port="0" to-layer="1300" to-port="2" />
		<edge from-layer="1298" from-port="0" to-layer="1300" to-port="3" />
		<edge from-layer="1299" from-port="0" to-layer="1300" to-port="4" />
		<edge from-layer="1300" from-port="5" to-layer="1303" to-port="0" />
		<edge from-layer="1301" from-port="0" to-layer="1303" to-port="1" />
		<edge from-layer="1302" from-port="0" to-layer="1303" to-port="2" />
		<edge from-layer="1303" from-port="4" to-layer="1385" to-port="0" />
		<edge from-layer="1303" from-port="4" to-layer="1408" to-port="1" />
		<edge from-layer="1303" from-port="3" to-layer="1408" to-port="0" />
		<edge from-layer="1303" from-port="4" to-layer="1308" to-port="0" />
		<edge from-layer="1304" from-port="0" to-layer="1305" to-port="0" />
		<edge from-layer="1305" from-port="1" to-layer="1307" to-port="0" />
		<edge from-layer="1306" from-port="0" to-layer="1307" to-port="1" />
		<edge from-layer="1307" from-port="2" to-layer="1308" to-port="1" />
		<edge from-layer="1308" from-port="2" to-layer="1310" to-port="0" />
		<edge from-layer="1309" from-port="0" to-layer="1310" to-port="1" />
		<edge from-layer="1310" from-port="2" to-layer="1311" to-port="0" />
		<edge from-layer="1311" from-port="1" to-layer="1316" to-port="0" />
		<edge from-layer="1312" from-port="0" to-layer="1316" to-port="1" />
		<edge from-layer="1313" from-port="0" to-layer="1316" to-port="2" />
		<edge from-layer="1314" from-port="0" to-layer="1316" to-port="3" />
		<edge from-layer="1315" from-port="0" to-layer="1316" to-port="4" />
		<edge from-layer="1316" from-port="5" to-layer="1321" to-port="0" />
		<edge from-layer="1316" from-port="5" to-layer="1343" to-port="0" />
		<edge from-layer="1317" from-port="0" to-layer="1318" to-port="0" />
		<edge from-layer="1318" from-port="1" to-layer="1320" to-port="0" />
		<edge from-layer="1319" from-port="0" to-layer="1320" to-port="1" />
		<edge from-layer="1320" from-port="2" to-layer="1321" to-port="1" />
		<edge from-layer="1321" from-port="2" to-layer="1323" to-port="0" />
		<edge from-layer="1322" from-port="0" to-layer="1323" to-port="1" />
		<edge from-layer="1323" from-port="2" to-layer="1324" to-port="0" />
		<edge from-layer="1324" from-port="1" to-layer="1329" to-port="0" />
		<edge from-layer="1325" from-port="0" to-layer="1329" to-port="1" />
		<edge from-layer="1326" from-port="0" to-layer="1329" to-port="2" />
		<edge from-layer="1327" from-port="0" to-layer="1329" to-port="3" />
		<edge from-layer="1328" from-port="0" to-layer="1329" to-port="4" />
		<edge from-layer="1329" from-port="5" to-layer="1334" to-port="0" />
		<edge from-layer="1330" from-port="0" to-layer="1331" to-port="0" />
		<edge from-layer="1331" from-port="1" to-layer="1333" to-port="0" />
		<edge from-layer="1332" from-port="0" to-layer="1333" to-port="1" />
		<edge from-layer="1333" from-port="2" to-layer="1334" to-port="1" />
		<edge from-layer="1334" from-port="2" to-layer="1336" to-port="0" />
		<edge from-layer="1335" from-port="0" to-layer="1336" to-port="1" />
		<edge from-layer="1336" from-port="2" to-layer="1337" to-port="0" />
		<edge from-layer="1337" from-port="1" to-layer="1342" to-port="0" />
		<edge from-layer="1338" from-port="0" to-layer="1342" to-port="1" />
		<edge from-layer="1339" from-port="0" to-layer="1342" to-port="2" />
		<edge from-layer="1340" from-port="0" to-layer="1342" to-port="3" />
		<edge from-layer="1341" from-port="0" to-layer="1342" to-port="4" />
		<edge from-layer="1342" from-port="5" to-layer="1343" to-port="1" />
		<edge from-layer="1343" from-port="2" to-layer="1348" to-port="0" />
		<edge from-layer="1344" from-port="0" to-layer="1348" to-port="1" />
		<edge from-layer="1345" from-port="0" to-layer="1348" to-port="2" />
		<edge from-layer="1346" from-port="0" to-layer="1348" to-port="3" />
		<edge from-layer="1347" from-port="0" to-layer="1348" to-port="4" />
		<edge from-layer="1348" from-port="5" to-layer="1375" to-port="0" />
		<edge from-layer="1348" from-port="5" to-layer="1353" to-port="0" />
		<edge from-layer="1349" from-port="0" to-layer="1350" to-port="0" />
		<edge from-layer="1350" from-port="1" to-layer="1352" to-port="0" />
		<edge from-layer="1351" from-port="0" to-layer="1352" to-port="1" />
		<edge from-layer="1352" from-port="2" to-layer="1353" to-port="1" />
		<edge from-layer="1353" from-port="2" to-layer="1355" to-port="0" />
		<edge from-layer="1354" from-port="0" to-layer="1355" to-port="1" />
		<edge from-layer="1355" from-port="2" to-layer="1356" to-port="0" />
		<edge from-layer="1356" from-port="1" to-layer="1361" to-port="0" />
		<edge from-layer="1357" from-port="0" to-layer="1361" to-port="1" />
		<edge from-layer="1358" from-port="0" to-layer="1361" to-port="2" />
		<edge from-layer="1359" from-port="0" to-layer="1361" to-port="3" />
		<edge from-layer="1360" from-port="0" to-layer="1361" to-port="4" />
		<edge from-layer="1361" from-port="5" to-layer="1366" to-port="0" />
		<edge from-layer="1362" from-port="0" to-layer="1363" to-port="0" />
		<edge from-layer="1363" from-port="1" to-layer="1365" to-port="0" />
		<edge from-layer="1364" from-port="0" to-layer="1365" to-port="1" />
		<edge from-layer="1365" from-port="2" to-layer="1366" to-port="1" />
		<edge from-layer="1366" from-port="2" to-layer="1368" to-port="0" />
		<edge from-layer="1367" from-port="0" to-layer="1368" to-port="1" />
		<edge from-layer="1368" from-port="2" to-layer="1369" to-port="0" />
		<edge from-layer="1369" from-port="1" to-layer="1374" to-port="0" />
		<edge from-layer="1370" from-port="0" to-layer="1374" to-port="1" />
		<edge from-layer="1371" from-port="0" to-layer="1374" to-port="2" />
		<edge from-layer="1372" from-port="0" to-layer="1374" to-port="3" />
		<edge from-layer="1373" from-port="0" to-layer="1374" to-port="4" />
		<edge from-layer="1374" from-port="5" to-layer="1375" to-port="1" />
		<edge from-layer="1375" from-port="2" to-layer="1380" to-port="0" />
		<edge from-layer="1376" from-port="0" to-layer="1380" to-port="1" />
		<edge from-layer="1377" from-port="0" to-layer="1380" to-port="2" />
		<edge from-layer="1378" from-port="0" to-layer="1380" to-port="3" />
		<edge from-layer="1379" from-port="0" to-layer="1380" to-port="4" />
		<edge from-layer="1380" from-port="5" to-layer="1394" to-port="0" />
		<edge from-layer="1381" from-port="0" to-layer="1382" to-port="0" />
		<edge from-layer="1382" from-port="1" to-layer="1384" to-port="0" />
		<edge from-layer="1383" from-port="0" to-layer="1384" to-port="1" />
		<edge from-layer="1384" from-port="2" to-layer="1385" to-port="1" />
		<edge from-layer="1385" from-port="2" to-layer="1387" to-port="0" />
		<edge from-layer="1386" from-port="0" to-layer="1387" to-port="1" />
		<edge from-layer="1387" from-port="2" to-layer="1388" to-port="0" />
		<edge from-layer="1388" from-port="1" to-layer="1393" to-port="0" />
		<edge from-layer="1389" from-port="0" to-layer="1393" to-port="1" />
		<edge from-layer="1390" from-port="0" to-layer="1393" to-port="2" />
		<edge from-layer="1391" from-port="0" to-layer="1393" to-port="3" />
		<edge from-layer="1392" from-port="0" to-layer="1393" to-port="4" />
		<edge from-layer="1393" from-port="5" to-layer="1394" to-port="1" />
		<edge from-layer="1394" from-port="2" to-layer="1399" to-port="0" />
		<edge from-layer="1395" from-port="0" to-layer="1396" to-port="0" />
		<edge from-layer="1396" from-port="1" to-layer="1398" to-port="0" />
		<edge from-layer="1397" from-port="0" to-layer="1398" to-port="1" />
		<edge from-layer="1398" from-port="2" to-layer="1399" to-port="1" />
		<edge from-layer="1399" from-port="2" to-layer="1401" to-port="0" />
		<edge from-layer="1400" from-port="0" to-layer="1401" to-port="1" />
		<edge from-layer="1401" from-port="2" to-layer="1402" to-port="0" />
		<edge from-layer="1402" from-port="1" to-layer="1407" to-port="0" />
		<edge from-layer="1403" from-port="0" to-layer="1407" to-port="1" />
		<edge from-layer="1404" from-port="0" to-layer="1407" to-port="2" />
		<edge from-layer="1405" from-port="0" to-layer="1407" to-port="3" />
		<edge from-layer="1406" from-port="0" to-layer="1407" to-port="4" />
		<edge from-layer="1407" from-port="5" to-layer="1408" to-port="2" />
		<edge from-layer="1408" from-port="3" to-layer="1413" to-port="0" />
		<edge from-layer="1409" from-port="0" to-layer="1410" to-port="0" />
		<edge from-layer="1410" from-port="1" to-layer="1412" to-port="0" />
		<edge from-layer="1411" from-port="0" to-layer="1412" to-port="1" />
		<edge from-layer="1412" from-port="2" to-layer="1413" to-port="1" />
		<edge from-layer="1413" from-port="2" to-layer="1415" to-port="0" />
		<edge from-layer="1414" from-port="0" to-layer="1415" to-port="1" />
		<edge from-layer="1415" from-port="2" to-layer="1416" to-port="0" />
		<edge from-layer="1416" from-port="1" to-layer="1421" to-port="0" />
		<edge from-layer="1417" from-port="0" to-layer="1421" to-port="1" />
		<edge from-layer="1418" from-port="0" to-layer="1421" to-port="2" />
		<edge from-layer="1419" from-port="0" to-layer="1421" to-port="3" />
		<edge from-layer="1420" from-port="0" to-layer="1421" to-port="4" />
		<edge from-layer="1421" from-port="5" to-layer="1426" to-port="0" />
		<edge from-layer="1421" from-port="5" to-layer="1623" to-port="0" />
		<edge from-layer="1422" from-port="0" to-layer="1423" to-port="0" />
		<edge from-layer="1423" from-port="1" to-layer="1425" to-port="0" />
		<edge from-layer="1424" from-port="0" to-layer="1425" to-port="1" />
		<edge from-layer="1425" from-port="2" to-layer="1426" to-port="1" />
		<edge from-layer="1426" from-port="2" to-layer="1428" to-port="0" />
		<edge from-layer="1427" from-port="0" to-layer="1428" to-port="1" />
		<edge from-layer="1428" from-port="2" to-layer="1429" to-port="0" />
		<edge from-layer="1429" from-port="1" to-layer="1434" to-port="0" />
		<edge from-layer="1430" from-port="0" to-layer="1434" to-port="1" />
		<edge from-layer="1431" from-port="0" to-layer="1434" to-port="2" />
		<edge from-layer="1432" from-port="0" to-layer="1434" to-port="3" />
		<edge from-layer="1433" from-port="0" to-layer="1434" to-port="4" />
		<edge from-layer="1434" from-port="5" to-layer="1439" to-port="0" />
		<edge from-layer="1435" from-port="0" to-layer="1436" to-port="0" />
		<edge from-layer="1436" from-port="1" to-layer="1438" to-port="0" />
		<edge from-layer="1437" from-port="0" to-layer="1438" to-port="1" />
		<edge from-layer="1438" from-port="2" to-layer="1439" to-port="1" />
		<edge from-layer="1439" from-port="2" to-layer="1441" to-port="0" />
		<edge from-layer="1440" from-port="0" to-layer="1441" to-port="1" />
		<edge from-layer="1441" from-port="2" to-layer="1442" to-port="0" />
		<edge from-layer="1442" from-port="1" to-layer="1447" to-port="0" />
		<edge from-layer="1443" from-port="0" to-layer="1447" to-port="1" />
		<edge from-layer="1444" from-port="0" to-layer="1447" to-port="2" />
		<edge from-layer="1445" from-port="0" to-layer="1447" to-port="3" />
		<edge from-layer="1446" from-port="0" to-layer="1447" to-port="4" />
		<edge from-layer="1447" from-port="5" to-layer="1452" to-port="0" />
		<edge from-layer="1448" from-port="0" to-layer="1449" to-port="0" />
		<edge from-layer="1449" from-port="1" to-layer="1451" to-port="0" />
		<edge from-layer="1450" from-port="0" to-layer="1451" to-port="1" />
		<edge from-layer="1451" from-port="2" to-layer="1452" to-port="1" />
		<edge from-layer="1452" from-port="2" to-layer="1454" to-port="0" />
		<edge from-layer="1453" from-port="0" to-layer="1454" to-port="1" />
		<edge from-layer="1454" from-port="2" to-layer="1456" to-port="0" />
		<edge from-layer="1455" from-port="0" to-layer="1456" to-port="1" />
		<edge from-layer="1456" from-port="2" to-layer="1457" to-port="2" />
		<edge from-layer="1457" from-port="3" to-layer="1459" to-port="0" />
		<edge from-layer="1458" from-port="0" to-layer="1459" to-port="1" />
		<edge from-layer="1459" from-port="2" to-layer="1461" to-port="0" />
		<edge from-layer="1460" from-port="0" to-layer="1461" to-port="1" />
		<edge from-layer="1461" from-port="2" to-layer="1462" to-port="0" />
		<edge from-layer="1462" from-port="1" to-layer="1467" to-port="0" />
		<edge from-layer="1463" from-port="0" to-layer="1467" to-port="1" />
		<edge from-layer="1464" from-port="0" to-layer="1467" to-port="2" />
		<edge from-layer="1465" from-port="0" to-layer="1467" to-port="3" />
		<edge from-layer="1466" from-port="0" to-layer="1467" to-port="4" />
		<edge from-layer="1467" from-port="5" to-layer="1472" to-port="0" />
		<edge from-layer="1468" from-port="0" to-layer="1469" to-port="0" />
		<edge from-layer="1469" from-port="1" to-layer="1471" to-port="0" />
		<edge from-layer="1470" from-port="0" to-layer="1471" to-port="1" />
		<edge from-layer="1471" from-port="2" to-layer="1472" to-port="1" />
		<edge from-layer="1472" from-port="2" to-layer="1474" to-port="0" />
		<edge from-layer="1473" from-port="0" to-layer="1474" to-port="1" />
		<edge from-layer="1474" from-port="2" to-layer="1476" to-port="0" />
		<edge from-layer="1474" from-port="2" to-layer="1487" to-port="0" />
		<edge from-layer="1475" from-port="0" to-layer="1478" to-port="1" />
		<edge from-layer="1475" from-port="0" to-layer="1487" to-port="1" />
		<edge from-layer="1476" from-port="1" to-layer="1478" to-port="0" />
		<edge from-layer="1477" from-port="0" to-layer="1482" to-port="1" />
		<edge from-layer="1477" from-port="0" to-layer="1478" to-port="2" />
		<edge from-layer="1478" from-port="3" to-layer="1480" to-port="0" />
		<edge from-layer="1478" from-port="3" to-layer="1481" to-port="0" />
		<edge from-layer="1479" from-port="0" to-layer="1480" to-port="1" />
		<edge from-layer="1479" from-port="0" to-layer="1481" to-port="1" />
		<edge from-layer="1480" from-port="2" to-layer="1484" to-port="0" />
		<edge from-layer="1481" from-port="2" to-layer="1482" to-port="0" />
		<edge from-layer="1482" from-port="2" to-layer="1483" to-port="0" />
		<edge from-layer="1483" from-port="1" to-layer="1484" to-port="1" />
		<edge from-layer="1484" from-port="2" to-layer="1486" to-port="0" />
		<edge from-layer="1485" from-port="0" to-layer="1486" to-port="1" />
		<edge from-layer="1486" from-port="2" to-layer="1487" to-port="2" />
		<edge from-layer="1487" from-port="4" to-layer="1489" to-port="1" />
		<edge from-layer="1487" from-port="3" to-layer="1488" to-port="1" />
		<edge from-layer="1488" from-port="2" to-layer="1493" to-port="1" />
		<edge from-layer="1488" from-port="2" to-layer="1490" to-port="0" />
		<edge from-layer="1489" from-port="2" to-layer="1493" to-port="0" />
		<edge from-layer="1489" from-port="2" to-layer="1490" to-port="1" />
		<edge from-layer="1490" from-port="2" to-layer="1492" to-port="0" />
		<edge from-layer="1491" from-port="0" to-layer="1492" to-port="1" />
		<edge from-layer="1492" from-port="2" to-layer="1494" to-port="0" />
		<edge from-layer="1493" from-port="2" to-layer="1494" to-port="1" />
		<edge from-layer="1494" from-port="2" to-layer="1496" to-port="0" />
		<edge from-layer="1495" from-port="0" to-layer="1496" to-port="1" />
		<edge from-layer="1496" from-port="2" to-layer="1682" to-port="0" />
		<edge from-layer="1497" from-port="0" to-layer="1498" to-port="0" />
		<edge from-layer="1498" from-port="1" to-layer="1500" to-port="0" />
		<edge from-layer="1499" from-port="0" to-layer="1500" to-port="1" />
		<edge from-layer="1500" from-port="2" to-layer="1501" to-port="1" />
		<edge from-layer="1501" from-port="2" to-layer="1503" to-port="0" />
		<edge from-layer="1502" from-port="0" to-layer="1503" to-port="1" />
		<edge from-layer="1503" from-port="2" to-layer="1504" to-port="0" />
		<edge from-layer="1504" from-port="1" to-layer="1509" to-port="0" />
		<edge from-layer="1505" from-port="0" to-layer="1509" to-port="1" />
		<edge from-layer="1506" from-port="0" to-layer="1509" to-port="2" />
		<edge from-layer="1507" from-port="0" to-layer="1509" to-port="3" />
		<edge from-layer="1508" from-port="0" to-layer="1509" to-port="4" />
		<edge from-layer="1509" from-port="5" to-layer="1514" to-port="0" />
		<edge from-layer="1510" from-port="0" to-layer="1511" to-port="0" />
		<edge from-layer="1511" from-port="1" to-layer="1513" to-port="0" />
		<edge from-layer="1512" from-port="0" to-layer="1513" to-port="1" />
		<edge from-layer="1513" from-port="2" to-layer="1514" to-port="1" />
		<edge from-layer="1514" from-port="2" to-layer="1516" to-port="0" />
		<edge from-layer="1515" from-port="0" to-layer="1516" to-port="1" />
		<edge from-layer="1516" from-port="2" to-layer="1517" to-port="0" />
		<edge from-layer="1517" from-port="1" to-layer="1522" to-port="0" />
		<edge from-layer="1518" from-port="0" to-layer="1522" to-port="1" />
		<edge from-layer="1519" from-port="0" to-layer="1522" to-port="2" />
		<edge from-layer="1520" from-port="0" to-layer="1522" to-port="3" />
		<edge from-layer="1521" from-port="0" to-layer="1522" to-port="4" />
		<edge from-layer="1522" from-port="5" to-layer="1527" to-port="0" />
		<edge from-layer="1523" from-port="0" to-layer="1524" to-port="0" />
		<edge from-layer="1524" from-port="1" to-layer="1526" to-port="0" />
		<edge from-layer="1525" from-port="0" to-layer="1526" to-port="1" />
		<edge from-layer="1526" from-port="2" to-layer="1527" to-port="1" />
		<edge from-layer="1527" from-port="2" to-layer="1529" to-port="0" />
		<edge from-layer="1528" from-port="0" to-layer="1529" to-port="1" />
		<edge from-layer="1529" from-port="2" to-layer="1530" to-port="0" />
		<edge from-layer="1530" from-port="1" to-layer="1535" to-port="0" />
		<edge from-layer="1531" from-port="0" to-layer="1535" to-port="1" />
		<edge from-layer="1532" from-port="0" to-layer="1535" to-port="2" />
		<edge from-layer="1533" from-port="0" to-layer="1535" to-port="3" />
		<edge from-layer="1534" from-port="0" to-layer="1535" to-port="4" />
		<edge from-layer="1535" from-port="5" to-layer="1540" to-port="0" />
		<edge from-layer="1536" from-port="0" to-layer="1537" to-port="0" />
		<edge from-layer="1537" from-port="1" to-layer="1539" to-port="0" />
		<edge from-layer="1538" from-port="0" to-layer="1539" to-port="1" />
		<edge from-layer="1539" from-port="2" to-layer="1540" to-port="1" />
		<edge from-layer="1540" from-port="2" to-layer="1542" to-port="0" />
		<edge from-layer="1541" from-port="0" to-layer="1542" to-port="1" />
		<edge from-layer="1542" from-port="2" to-layer="1543" to-port="0" />
		<edge from-layer="1543" from-port="1" to-layer="1548" to-port="0" />
		<edge from-layer="1544" from-port="0" to-layer="1548" to-port="1" />
		<edge from-layer="1545" from-port="0" to-layer="1548" to-port="2" />
		<edge from-layer="1546" from-port="0" to-layer="1548" to-port="3" />
		<edge from-layer="1547" from-port="0" to-layer="1548" to-port="4" />
		<edge from-layer="1548" from-port="5" to-layer="1553" to-port="0" />
		<edge from-layer="1549" from-port="0" to-layer="1550" to-port="0" />
		<edge from-layer="1550" from-port="1" to-layer="1552" to-port="0" />
		<edge from-layer="1551" from-port="0" to-layer="1552" to-port="1" />
		<edge from-layer="1552" from-port="2" to-layer="1553" to-port="1" />
		<edge from-layer="1553" from-port="2" to-layer="1555" to-port="0" />
		<edge from-layer="1554" from-port="0" to-layer="1555" to-port="1" />
		<edge from-layer="1555" from-port="2" to-layer="1557" to-port="0" />
		<edge from-layer="1556" from-port="0" to-layer="1557" to-port="1" />
		<edge from-layer="1557" from-port="2" to-layer="1680" to-port="0" />
		<edge from-layer="1558" from-port="0" to-layer="1559" to-port="0" />
		<edge from-layer="1559" from-port="1" to-layer="1561" to-port="0" />
		<edge from-layer="1560" from-port="0" to-layer="1561" to-port="1" />
		<edge from-layer="1561" from-port="2" to-layer="1562" to-port="1" />
		<edge from-layer="1562" from-port="2" to-layer="1564" to-port="0" />
		<edge from-layer="1563" from-port="0" to-layer="1564" to-port="1" />
		<edge from-layer="1564" from-port="2" to-layer="1565" to-port="0" />
		<edge from-layer="1565" from-port="1" to-layer="1570" to-port="0" />
		<edge from-layer="1566" from-port="0" to-layer="1570" to-port="1" />
		<edge from-layer="1567" from-port="0" to-layer="1570" to-port="2" />
		<edge from-layer="1568" from-port="0" to-layer="1570" to-port="3" />
		<edge from-layer="1569" from-port="0" to-layer="1570" to-port="4" />
		<edge from-layer="1570" from-port="5" to-layer="1575" to-port="0" />
		<edge from-layer="1571" from-port="0" to-layer="1572" to-port="0" />
		<edge from-layer="1572" from-port="1" to-layer="1574" to-port="0" />
		<edge from-layer="1573" from-port="0" to-layer="1574" to-port="1" />
		<edge from-layer="1574" from-port="2" to-layer="1575" to-port="1" />
		<edge from-layer="1575" from-port="2" to-layer="1577" to-port="0" />
		<edge from-layer="1576" from-port="0" to-layer="1577" to-port="1" />
		<edge from-layer="1577" from-port="2" to-layer="1578" to-port="0" />
		<edge from-layer="1578" from-port="1" to-layer="1583" to-port="0" />
		<edge from-layer="1579" from-port="0" to-layer="1583" to-port="1" />
		<edge from-layer="1580" from-port="0" to-layer="1583" to-port="2" />
		<edge from-layer="1581" from-port="0" to-layer="1583" to-port="3" />
		<edge from-layer="1582" from-port="0" to-layer="1583" to-port="4" />
		<edge from-layer="1583" from-port="5" to-layer="1588" to-port="0" />
		<edge from-layer="1584" from-port="0" to-layer="1585" to-port="0" />
		<edge from-layer="1585" from-port="1" to-layer="1587" to-port="0" />
		<edge from-layer="1586" from-port="0" to-layer="1587" to-port="1" />
		<edge from-layer="1587" from-port="2" to-layer="1588" to-port="1" />
		<edge from-layer="1588" from-port="2" to-layer="1590" to-port="0" />
		<edge from-layer="1589" from-port="0" to-layer="1590" to-port="1" />
		<edge from-layer="1590" from-port="2" to-layer="1591" to-port="0" />
		<edge from-layer="1591" from-port="1" to-layer="1596" to-port="0" />
		<edge from-layer="1592" from-port="0" to-layer="1596" to-port="1" />
		<edge from-layer="1593" from-port="0" to-layer="1596" to-port="2" />
		<edge from-layer="1594" from-port="0" to-layer="1596" to-port="3" />
		<edge from-layer="1595" from-port="0" to-layer="1596" to-port="4" />
		<edge from-layer="1596" from-port="5" to-layer="1601" to-port="0" />
		<edge from-layer="1597" from-port="0" to-layer="1598" to-port="0" />
		<edge from-layer="1598" from-port="1" to-layer="1600" to-port="0" />
		<edge from-layer="1599" from-port="0" to-layer="1600" to-port="1" />
		<edge from-layer="1600" from-port="2" to-layer="1601" to-port="1" />
		<edge from-layer="1601" from-port="2" to-layer="1603" to-port="0" />
		<edge from-layer="1602" from-port="0" to-layer="1603" to-port="1" />
		<edge from-layer="1603" from-port="2" to-layer="1604" to-port="0" />
		<edge from-layer="1604" from-port="1" to-layer="1609" to-port="0" />
		<edge from-layer="1605" from-port="0" to-layer="1609" to-port="1" />
		<edge from-layer="1606" from-port="0" to-layer="1609" to-port="2" />
		<edge from-layer="1607" from-port="0" to-layer="1609" to-port="3" />
		<edge from-layer="1608" from-port="0" to-layer="1609" to-port="4" />
		<edge from-layer="1609" from-port="5" to-layer="1614" to-port="0" />
		<edge from-layer="1610" from-port="0" to-layer="1611" to-port="0" />
		<edge from-layer="1611" from-port="1" to-layer="1613" to-port="0" />
		<edge from-layer="1612" from-port="0" to-layer="1613" to-port="1" />
		<edge from-layer="1613" from-port="2" to-layer="1614" to-port="1" />
		<edge from-layer="1614" from-port="2" to-layer="1616" to-port="0" />
		<edge from-layer="1615" from-port="0" to-layer="1616" to-port="1" />
		<edge from-layer="1616" from-port="2" to-layer="1618" to-port="0" />
		<edge from-layer="1617" from-port="0" to-layer="1618" to-port="1" />
		<edge from-layer="1618" from-port="2" to-layer="1680" to-port="1" />
		<edge from-layer="1619" from-port="0" to-layer="1620" to-port="0" />
		<edge from-layer="1620" from-port="1" to-layer="1622" to-port="0" />
		<edge from-layer="1621" from-port="0" to-layer="1622" to-port="1" />
		<edge from-layer="1622" from-port="2" to-layer="1623" to-port="1" />
		<edge from-layer="1623" from-port="2" to-layer="1625" to-port="0" />
		<edge from-layer="1624" from-port="0" to-layer="1625" to-port="1" />
		<edge from-layer="1625" from-port="2" to-layer="1626" to-port="0" />
		<edge from-layer="1626" from-port="1" to-layer="1631" to-port="0" />
		<edge from-layer="1627" from-port="0" to-layer="1631" to-port="1" />
		<edge from-layer="1628" from-port="0" to-layer="1631" to-port="2" />
		<edge from-layer="1629" from-port="0" to-layer="1631" to-port="3" />
		<edge from-layer="1630" from-port="0" to-layer="1631" to-port="4" />
		<edge from-layer="1631" from-port="5" to-layer="1636" to-port="0" />
		<edge from-layer="1632" from-port="0" to-layer="1633" to-port="0" />
		<edge from-layer="1633" from-port="1" to-layer="1635" to-port="0" />
		<edge from-layer="1634" from-port="0" to-layer="1635" to-port="1" />
		<edge from-layer="1635" from-port="2" to-layer="1636" to-port="1" />
		<edge from-layer="1636" from-port="2" to-layer="1638" to-port="0" />
		<edge from-layer="1637" from-port="0" to-layer="1638" to-port="1" />
		<edge from-layer="1638" from-port="2" to-layer="1639" to-port="0" />
		<edge from-layer="1639" from-port="1" to-layer="1644" to-port="0" />
		<edge from-layer="1640" from-port="0" to-layer="1644" to-port="1" />
		<edge from-layer="1641" from-port="0" to-layer="1644" to-port="2" />
		<edge from-layer="1642" from-port="0" to-layer="1644" to-port="3" />
		<edge from-layer="1643" from-port="0" to-layer="1644" to-port="4" />
		<edge from-layer="1644" from-port="5" to-layer="1649" to-port="0" />
		<edge from-layer="1645" from-port="0" to-layer="1646" to-port="0" />
		<edge from-layer="1646" from-port="1" to-layer="1648" to-port="0" />
		<edge from-layer="1647" from-port="0" to-layer="1648" to-port="1" />
		<edge from-layer="1648" from-port="2" to-layer="1649" to-port="1" />
		<edge from-layer="1649" from-port="2" to-layer="1651" to-port="0" />
		<edge from-layer="1650" from-port="0" to-layer="1651" to-port="1" />
		<edge from-layer="1651" from-port="2" to-layer="1652" to-port="0" />
		<edge from-layer="1652" from-port="1" to-layer="1657" to-port="0" />
		<edge from-layer="1653" from-port="0" to-layer="1657" to-port="1" />
		<edge from-layer="1654" from-port="0" to-layer="1657" to-port="2" />
		<edge from-layer="1655" from-port="0" to-layer="1657" to-port="3" />
		<edge from-layer="1656" from-port="0" to-layer="1657" to-port="4" />
		<edge from-layer="1657" from-port="5" to-layer="1662" to-port="0" />
		<edge from-layer="1658" from-port="0" to-layer="1659" to-port="0" />
		<edge from-layer="1659" from-port="1" to-layer="1661" to-port="0" />
		<edge from-layer="1660" from-port="0" to-layer="1661" to-port="1" />
		<edge from-layer="1661" from-port="2" to-layer="1662" to-port="1" />
		<edge from-layer="1662" from-port="2" to-layer="1664" to-port="0" />
		<edge from-layer="1663" from-port="0" to-layer="1664" to-port="1" />
		<edge from-layer="1664" from-port="2" to-layer="1665" to-port="0" />
		<edge from-layer="1665" from-port="1" to-layer="1670" to-port="0" />
		<edge from-layer="1666" from-port="0" to-layer="1670" to-port="1" />
		<edge from-layer="1667" from-port="0" to-layer="1670" to-port="2" />
		<edge from-layer="1668" from-port="0" to-layer="1670" to-port="3" />
		<edge from-layer="1669" from-port="0" to-layer="1670" to-port="4" />
		<edge from-layer="1670" from-port="5" to-layer="1675" to-port="0" />
		<edge from-layer="1671" from-port="0" to-layer="1672" to-port="0" />
		<edge from-layer="1672" from-port="1" to-layer="1674" to-port="0" />
		<edge from-layer="1673" from-port="0" to-layer="1674" to-port="1" />
		<edge from-layer="1674" from-port="2" to-layer="1675" to-port="1" />
		<edge from-layer="1675" from-port="2" to-layer="1677" to-port="0" />
		<edge from-layer="1676" from-port="0" to-layer="1677" to-port="1" />
		<edge from-layer="1677" from-port="2" to-layer="1679" to-port="0" />
		<edge from-layer="1678" from-port="0" to-layer="1679" to-port="1" />
		<edge from-layer="1679" from-port="2" to-layer="1680" to-port="2" />
		<edge from-layer="1680" from-port="3" to-layer="1681" to-port="0" />
		<edge from-layer="1681" from-port="1" to-layer="1682" to-port="1" />
		<edge from-layer="1682" from-port="2" to-layer="1683" to-port="0" />
	</edges>
	<rt_info>
		<Runtime_version value="2026.1.0-21367-63e31528c62-releases/2026/1" />
		<conversion_parameters>
			<framework value="pytorch" />
			<is_python_object value="True" />
		</conversion_parameters>
		<model_info>
			<iou_threshold value="0.7" />
			<labels value="gloves hands head helmet person vest" />
			<model_type value="YOLO" />
			<pad_value value="114" />
			<resize_type value="fit_to_window_letterbox" />
			<reverse_input_channels value="YES" />
			<scale_values value="255" />
		</model_info>
		<nncf>
			<friendly_names_were_updated value="True" />
			<quantization>
				<advanced_parameters value="{}" />
				<fast_bias_correction value="True" />
				<ignored_scope>
					<patterns value="['.*model.23/.*/Add', '.*model.23/.*/Sub*', '.*model.23/.*/Mul*', '.*model.23/.*/Div*']" />
					<types value="['Sigmoid']" />
				</ignored_scope>
				<model_type value="None" />
				<preset value="mixed" />
				<subset_size value="300" />
				<target_device value="ANY" />
			</quantization>
			<version value="3.1.0" />
		</nncf>
	</rt_info>
</net>
